7767517
999 1782
Input            data                     0 1 data
Convolution      /Conv                    1 1 data /Conv_output_0 0=64 1=3 4=1 5=1 6=1728
Split            splitncnn_0              1 8 /Conv_output_0 /Conv_output_0_splitncnn_0 /Conv_output_0_splitncnn_1 /Conv_output_0_splitncnn_2 /Conv_output_0_splitncnn_3 /Conv_output_0_splitncnn_4 /Conv_output_0_splitncnn_5 /Conv_output_0_splitncnn_6 /Conv_output_0_splitncnn_7
Convolution      /Conv_1                  1 1 /Conv_output_0_splitncnn_7 /LeakyRelu_output_0 0=32 1=3 4=1 5=1 6=18432 9=2 -23310=1,2.000000e-01
Split            splitncnn_1              1 4 /LeakyRelu_output_0 /LeakyRelu_output_0_splitncnn_0 /LeakyRelu_output_0_splitncnn_1 /LeakyRelu_output_0_splitncnn_2 /LeakyRelu_output_0_splitncnn_3
Concat           /Concat                  2 1 /Conv_output_0_splitncnn_6 /LeakyRelu_output_0_splitncnn_3 /Concat_output_0
Convolution      /Conv_2                  1 1 /Concat_output_0 /LeakyRelu_1_output_0 0=32 1=3 4=1 5=1 6=27648 9=2 -23310=1,2.000000e-01
Split            splitncnn_2              1 3 /LeakyRelu_1_output_0 /LeakyRelu_1_output_0_splitncnn_0 /LeakyRelu_1_output_0_splitncnn_1 /LeakyRelu_1_output_0_splitncnn_2
Concat           /Concat_1                3 1 /Conv_output_0_splitncnn_5 /LeakyRelu_output_0_splitncnn_2 /LeakyRelu_1_output_0_splitncnn_2 /Concat_1_output_0
Convolution      /Conv_3                  1 1 /Concat_1_output_0 /LeakyRelu_2_output_0 0=32 1=3 4=1 5=1 6=36864 9=2 -23310=1,2.000000e-01
Split            splitncnn_3              1 2 /LeakyRelu_2_output_0 /LeakyRelu_2_output_0_splitncnn_0 /LeakyRelu_2_output_0_splitncnn_1
Concat           /Concat_2                4 1 /Conv_output_0_splitncnn_4 /LeakyRelu_output_0_splitncnn_1 /LeakyRelu_1_output_0_splitncnn_1 /LeakyRelu_2_output_0_splitncnn_1 /Concat_2_output_0
Convolution      /Conv_4                  1 1 /Concat_2_output_0 /LeakyRelu_3_output_0 0=32 1=3 4=1 5=1 6=46080 9=2 -23310=1,2.000000e-01
Concat           /Concat_3                5 1 /Conv_output_0_splitncnn_3 /LeakyRelu_output_0_splitncnn_0 /LeakyRelu_1_output_0_splitncnn_0 /LeakyRelu_2_output_0_splitncnn_0 /LeakyRelu_3_output_0 /Concat_3_output_0
Convolution      /Conv_5                  1 1 /Concat_3_output_0 /Conv_5_output_0 0=64 1=3 4=1 5=1 6=110592
Eltwise          /Add                     2 1 /Conv_5_output_0 /Conv_output_0_splitncnn_2 /Add_output_0 0=1 -23301=2,2.000000e-01,1.000000e+00
Split            splitncnn_4              1 6 /Add_output_0 /Add_output_0_splitncnn_0 /Add_output_0_splitncnn_1 /Add_output_0_splitncnn_2 /Add_output_0_splitncnn_3 /Add_output_0_splitncnn_4 /Add_output_0_splitncnn_5
Convolution      /Conv_6                  1 1 /Add_output_0_splitncnn_5 /LeakyRelu_4_output_0 0=32 1=3 4=1 5=1 6=18432 9=2 -23310=1,2.000000e-01
Split            splitncnn_5              1 4 /LeakyRelu_4_output_0 /LeakyRelu_4_output_0_splitncnn_0 /LeakyRelu_4_output_0_splitncnn_1 /LeakyRelu_4_output_0_splitncnn_2 /LeakyRelu_4_output_0_splitncnn_3
Concat           /Concat_4                2 1 /Add_output_0_splitncnn_4 /LeakyRelu_4_output_0_splitncnn_3 /Concat_4_output_0
Convolution      /Conv_7                  1 1 /Concat_4_output_0 /LeakyRelu_5_output_0 0=32 1=3 4=1 5=1 6=27648 9=2 -23310=1,2.000000e-01
Split            splitncnn_6              1 3 /LeakyRelu_5_output_0 /LeakyRelu_5_output_0_splitncnn_0 /LeakyRelu_5_output_0_splitncnn_1 /LeakyRelu_5_output_0_splitncnn_2
Concat           /Concat_5                3 1 /Add_output_0_splitncnn_3 /LeakyRelu_4_output_0_splitncnn_2 /LeakyRelu_5_output_0_splitncnn_2 /Concat_5_output_0
Convolution      /Conv_8                  1 1 /Concat_5_output_0 /LeakyRelu_6_output_0 0=32 1=3 4=1 5=1 6=36864 9=2 -23310=1,2.000000e-01
Split            splitncnn_7              1 2 /LeakyRelu_6_output_0 /LeakyRelu_6_output_0_splitncnn_0 /LeakyRelu_6_output_0_splitncnn_1
Concat           /Concat_6                4 1 /Add_output_0_splitncnn_2 /LeakyRelu_4_output_0_splitncnn_1 /LeakyRelu_5_output_0_splitncnn_1 /LeakyRelu_6_output_0_splitncnn_1 /Concat_6_output_0
Convolution      /Conv_9                  1 1 /Concat_6_output_0 /LeakyRelu_7_output_0 0=32 1=3 4=1 5=1 6=46080 9=2 -23310=1,2.000000e-01
Concat           /Concat_7                5 1 /Add_output_0_splitncnn_1 /LeakyRelu_4_output_0_splitncnn_0 /LeakyRelu_5_output_0_splitncnn_0 /LeakyRelu_6_output_0_splitncnn_0 /LeakyRelu_7_output_0 /Concat_7_output_0
Convolution      /Conv_10                 1 1 /Concat_7_output_0 /Conv_10_output_0 0=64 1=3 4=1 5=1 6=110592
Eltwise          /Add_1                   2 1 /Conv_10_output_0 /Add_output_0_splitncnn_0 /Add_1_output_0 0=1 -23301=2,2.000000e-01,1.000000e+00
Split            splitncnn_8              1 6 /Add_1_output_0 /Add_1_output_0_splitncnn_0 /Add_1_output_0_splitncnn_1 /Add_1_output_0_splitncnn_2 /Add_1_output_0_splitncnn_3 /Add_1_output_0_splitncnn_4 /Add_1_output_0_splitncnn_5
Convolution      /Conv_11                 1 1 /Add_1_output_0_splitncnn_5 /LeakyRelu_8_output_0 0=32 1=3 4=1 5=1 6=18432 9=2 -23310=1,2.000000e-01
Split            splitncnn_9              1 4 /LeakyRelu_8_output_0 /LeakyRelu_8_output_0_splitncnn_0 /LeakyRelu_8_output_0_splitncnn_1 /LeakyRelu_8_output_0_splitncnn_2 /LeakyRelu_8_output_0_splitncnn_3
Concat           /Concat_8                2 1 /Add_1_output_0_splitncnn_4 /LeakyRelu_8_output_0_splitncnn_3 /Concat_8_output_0
Convolution      /Conv_12                 1 1 /Concat_8_output_0 /LeakyRelu_9_output_0 0=32 1=3 4=1 5=1 6=27648 9=2 -23310=1,2.000000e-01
Split            splitncnn_10             1 3 /LeakyRelu_9_output_0 /LeakyRelu_9_output_0_splitncnn_0 /LeakyRelu_9_output_0_splitncnn_1 /LeakyRelu_9_output_0_splitncnn_2
Concat           /Concat_9                3 1 /Add_1_output_0_splitncnn_3 /LeakyRelu_8_output_0_splitncnn_2 /LeakyRelu_9_output_0_splitncnn_2 /Concat_9_output_0
Convolution      /Conv_13                 1 1 /Concat_9_output_0 /LeakyRelu_10_output_0 0=32 1=3 4=1 5=1 6=36864 9=2 -23310=1,2.000000e-01
Split            splitncnn_11             1 2 /LeakyRelu_10_output_0 /LeakyRelu_10_output_0_splitncnn_0 /LeakyRelu_10_output_0_splitncnn_1
Concat           /Concat_10               4 1 /Add_1_output_0_splitncnn_2 /LeakyRelu_8_output_0_splitncnn_1 /LeakyRelu_9_output_0_splitncnn_1 /LeakyRelu_10_output_0_splitncnn_1 /Concat_10_output_0
Convolution      /Conv_14                 1 1 /Concat_10_output_0 /LeakyRelu_11_output_0 0=32 1=3 4=1 5=1 6=46080 9=2 -23310=1,2.000000e-01
Concat           /Concat_11               5 1 /Add_1_output_0_splitncnn_1 /LeakyRelu_8_output_0_splitncnn_0 /LeakyRelu_9_output_0_splitncnn_0 /LeakyRelu_10_output_0_splitncnn_0 /LeakyRelu_11_output_0 /Concat_11_output_0
Convolution      /Conv_15                 1 1 /Concat_11_output_0 /Conv_15_output_0 0=64 1=3 4=1 5=1 6=110592
Eltwise          /Add_2                   2 1 /Conv_15_output_0 /Add_1_output_0_splitncnn_0 /Add_2_output_0 0=1 -23301=2,2.000000e-01,1.000000e+00
Eltwise          /Add_3                   2 1 /Add_2_output_0 /Conv_output_0_splitncnn_1 /Add_3_output_0 0=1 -23301=2,2.000000e-01,1.000000e+00
Split            splitncnn_12             1 7 /Add_3_output_0 /Add_3_output_0_splitncnn_0 /Add_3_output_0_splitncnn_1 /Add_3_output_0_splitncnn_2 /Add_3_output_0_splitncnn_3 /Add_3_output_0_splitncnn_4 /Add_3_output_0_splitncnn_5 /Add_3_output_0_splitncnn_6
Convolution      /Conv_16                 1 1 /Add_3_output_0_splitncnn_6 /LeakyRelu_12_output_0 0=32 1=3 4=1 5=1 6=18432 9=2 -23310=1,2.000000e-01
Split            splitncnn_13             1 4 /LeakyRelu_12_output_0 /LeakyRelu_12_output_0_splitncnn_0 /LeakyRelu_12_output_0_splitncnn_1 /LeakyRelu_12_output_0_splitncnn_2 /LeakyRelu_12_output_0_splitncnn_3
Concat           /Concat_12               2 1 /Add_3_output_0_splitncnn_5 /LeakyRelu_12_output_0_splitncnn_3 /Concat_12_output_0
Convolution      /Conv_17                 1 1 /Concat_12_output_0 /LeakyRelu_13_output_0 0=32 1=3 4=1 5=1 6=27648 9=2 -23310=1,2.000000e-01
Split            splitncnn_14             1 3 /LeakyRelu_13_output_0 /LeakyRelu_13_output_0_splitncnn_0 /LeakyRelu_13_output_0_splitncnn_1 /LeakyRelu_13_output_0_splitncnn_2
Concat           /Concat_13               3 1 /Add_3_output_0_splitncnn_4 /LeakyRelu_12_output_0_splitncnn_2 /LeakyRelu_13_output_0_splitncnn_2 /Concat_13_output_0
Convolution      /Conv_18                 1 1 /Concat_13_output_0 /LeakyRelu_14_output_0 0=32 1=3 4=1 5=1 6=36864 9=2 -23310=1,2.000000e-01
Split            splitncnn_15             1 2 /LeakyRelu_14_output_0 /LeakyRelu_14_output_0_splitncnn_0 /LeakyRelu_14_output_0_splitncnn_1
Concat           /Concat_14               4 1 /Add_3_output_0_splitncnn_3 /LeakyRelu_12_output_0_splitncnn_1 /LeakyRelu_13_output_0_splitncnn_1 /LeakyRelu_14_output_0_splitncnn_1 /Concat_14_output_0
Convolution      /Conv_19                 1 1 /Concat_14_output_0 /LeakyRelu_15_output_0 0=32 1=3 4=1 5=1 6=46080 9=2 -23310=1,2.000000e-01
Concat           /Concat_15               5 1 /Add_3_output_0_splitncnn_2 /LeakyRelu_12_output_0_splitncnn_0 /LeakyRelu_13_output_0_splitncnn_0 /LeakyRelu_14_output_0_splitncnn_0 /LeakyRelu_15_output_0 /Concat_15_output_0
Convolution      /Conv_20                 1 1 /Concat_15_output_0 /Conv_20_output_0 0=64 1=3 4=1 5=1 6=110592
Eltwise          /Add_4                   2 1 /Conv_20_output_0 /Add_3_output_0_splitncnn_1 /Add_4_output_0 0=1 -23301=2,2.000000e-01,1.000000e+00
Split            splitncnn_16             1 6 /Add_4_output_0 /Add_4_output_0_splitncnn_0 /Add_4_output_0_splitncnn_1 /Add_4_output_0_splitncnn_2 /Add_4_output_0_splitncnn_3 /Add_4_output_0_splitncnn_4 /Add_4_output_0_splitncnn_5
Convolution      /Conv_21                 1 1 /Add_4_output_0_splitncnn_5 /LeakyRelu_16_output_0 0=32 1=3 4=1 5=1 6=18432 9=2 -23310=1,2.000000e-01
Split            splitncnn_17             1 4 /LeakyRelu_16_output_0 /LeakyRelu_16_output_0_splitncnn_0 /LeakyRelu_16_output_0_splitncnn_1 /LeakyRelu_16_output_0_splitncnn_2 /LeakyRelu_16_output_0_splitncnn_3
Concat           /Concat_16               2 1 /Add_4_output_0_splitncnn_4 /LeakyRelu_16_output_0_splitncnn_3 /Concat_16_output_0
Convolution      /Conv_22                 1 1 /Concat_16_output_0 /LeakyRelu_17_output_0 0=32 1=3 4=1 5=1 6=27648 9=2 -23310=1,2.000000e-01
Split            splitncnn_18             1 3 /LeakyRelu_17_output_0 /LeakyRelu_17_output_0_splitncnn_0 /LeakyRelu_17_output_0_splitncnn_1 /LeakyRelu_17_output_0_splitncnn_2
Concat           /Concat_17               3 1 /Add_4_output_0_splitncnn_3 /LeakyRelu_16_output_0_splitncnn_2 /LeakyRelu_17_output_0_splitncnn_2 /Concat_17_output_0
Convolution      /Conv_23                 1 1 /Concat_17_output_0 /LeakyRelu_18_output_0 0=32 1=3 4=1 5=1 6=36864 9=2 -23310=1,2.000000e-01
Split            splitncnn_19             1 2 /LeakyRelu_18_output_0 /LeakyRelu_18_output_0_splitncnn_0 /LeakyRelu_18_output_0_splitncnn_1
Concat           /Concat_18               4 1 /Add_4_output_0_splitncnn_2 /LeakyRelu_16_output_0_splitncnn_1 /LeakyRelu_17_output_0_splitncnn_1 /LeakyRelu_18_output_0_splitncnn_1 /Concat_18_output_0
Convolution      /Conv_24                 1 1 /Concat_18_output_0 /LeakyRelu_19_output_0 0=32 1=3 4=1 5=1 6=46080 9=2 -23310=1,2.000000e-01
Concat           /Concat_19               5 1 /Add_4_output_0_splitncnn_1 /LeakyRelu_16_output_0_splitncnn_0 /LeakyRelu_17_output_0_splitncnn_0 /LeakyRelu_18_output_0_splitncnn_0 /LeakyRelu_19_output_0 /Concat_19_output_0
Convolution      /Conv_25                 1 1 /Concat_19_output_0 /Conv_25_output_0 0=64 1=3 4=1 5=1 6=110592
Eltwise          /Add_5                   2 1 /Conv_25_output_0 /Add_4_output_0_splitncnn_0 /Add_5_output_0 0=1 -23301=2,2.000000e-01,1.000000e+00
Split            splitncnn_20             1 6 /Add_5_output_0 /Add_5_output_0_splitncnn_0 /Add_5_output_0_splitncnn_1 /Add_5_output_0_splitncnn_2 /Add_5_output_0_splitncnn_3 /Add_5_output_0_splitncnn_4 /Add_5_output_0_splitncnn_5
Convolution      /Conv_26                 1 1 /Add_5_output_0_splitncnn_5 /LeakyRelu_20_output_0 0=32 1=3 4=1 5=1 6=18432 9=2 -23310=1,2.000000e-01
Split            splitncnn_21             1 4 /LeakyRelu_20_output_0 /LeakyRelu_20_output_0_splitncnn_0 /LeakyRelu_20_output_0_splitncnn_1 /LeakyRelu_20_output_0_splitncnn_2 /LeakyRelu_20_output_0_splitncnn_3
Concat           /Concat_20               2 1 /Add_5_output_0_splitncnn_4 /LeakyRelu_20_output_0_splitncnn_3 /Concat_20_output_0
Convolution      /Conv_27                 1 1 /Concat_20_output_0 /LeakyRelu_21_output_0 0=32 1=3 4=1 5=1 6=27648 9=2 -23310=1,2.000000e-01
Split            splitncnn_22             1 3 /LeakyRelu_21_output_0 /LeakyRelu_21_output_0_splitncnn_0 /LeakyRelu_21_output_0_splitncnn_1 /LeakyRelu_21_output_0_splitncnn_2
Concat           /Concat_21               3 1 /Add_5_output_0_splitncnn_3 /LeakyRelu_20_output_0_splitncnn_2 /LeakyRelu_21_output_0_splitncnn_2 /Concat_21_output_0
Convolution      /Conv_28                 1 1 /Concat_21_output_0 /LeakyRelu_22_output_0 0=32 1=3 4=1 5=1 6=36864 9=2 -23310=1,2.000000e-01
Split            splitncnn_23             1 2 /LeakyRelu_22_output_0 /LeakyRelu_22_output_0_splitncnn_0 /LeakyRelu_22_output_0_splitncnn_1
Concat           /Concat_22               4 1 /Add_5_output_0_splitncnn_2 /LeakyRelu_20_output_0_splitncnn_1 /LeakyRelu_21_output_0_splitncnn_1 /LeakyRelu_22_output_0_splitncnn_1 /Concat_22_output_0
Convolution      /Conv_29                 1 1 /Concat_22_output_0 /LeakyRelu_23_output_0 0=32 1=3 4=1 5=1 6=46080 9=2 -23310=1,2.000000e-01
Concat           /Concat_23               5 1 /Add_5_output_0_splitncnn_1 /LeakyRelu_20_output_0_splitncnn_0 /LeakyRelu_21_output_0_splitncnn_0 /LeakyRelu_22_output_0_splitncnn_0 /LeakyRelu_23_output_0 /Concat_23_output_0
Convolution      /Conv_30                 1 1 /Concat_23_output_0 /Conv_30_output_0 0=64 1=3 4=1 5=1 6=110592
Eltwise          /Add_6                   2 1 /Conv_30_output_0 /Add_5_output_0_splitncnn_0 /Add_6_output_0 0=1 -23301=2,2.000000e-01,1.000000e+00
Eltwise          /Add_7                   2 1 /Add_6_output_0 /Add_3_output_0_splitncnn_0 /Add_7_output_0 0=1 -23301=2,2.000000e-01,1.000000e+00
Split            splitncnn_24             1 7 /Add_7_output_0 /Add_7_output_0_splitncnn_0 /Add_7_output_0_splitncnn_1 /Add_7_output_0_splitncnn_2 /Add_7_output_0_splitncnn_3 /Add_7_output_0_splitncnn_4 /Add_7_output_0_splitncnn_5 /Add_7_output_0_splitncnn_6
Convolution      /Conv_31                 1 1 /Add_7_output_0_splitncnn_6 /LeakyRelu_24_output_0 0=32 1=3 4=1 5=1 6=18432 9=2 -23310=1,2.000000e-01
Split            splitncnn_25             1 4 /LeakyRelu_24_output_0 /LeakyRelu_24_output_0_splitncnn_0 /LeakyRelu_24_output_0_splitncnn_1 /LeakyRelu_24_output_0_splitncnn_2 /LeakyRelu_24_output_0_splitncnn_3
Concat           /Concat_24               2 1 /Add_7_output_0_splitncnn_5 /LeakyRelu_24_output_0_splitncnn_3 /Concat_24_output_0
Convolution      /Conv_32                 1 1 /Concat_24_output_0 /LeakyRelu_25_output_0 0=32 1=3 4=1 5=1 6=27648 9=2 -23310=1,2.000000e-01
Split            splitncnn_26             1 3 /LeakyRelu_25_output_0 /LeakyRelu_25_output_0_splitncnn_0 /LeakyRelu_25_output_0_splitncnn_1 /LeakyRelu_25_output_0_splitncnn_2
Concat           /Concat_25               3 1 /Add_7_output_0_splitncnn_4 /LeakyRelu_24_output_0_splitncnn_2 /LeakyRelu_25_output_0_splitncnn_2 /Concat_25_output_0
Convolution      /Conv_33                 1 1 /Concat_25_output_0 /LeakyRelu_26_output_0 0=32 1=3 4=1 5=1 6=36864 9=2 -23310=1,2.000000e-01
Split            splitncnn_27             1 2 /LeakyRelu_26_output_0 /LeakyRelu_26_output_0_splitncnn_0 /LeakyRelu_26_output_0_splitncnn_1
Concat           /Concat_26               4 1 /Add_7_output_0_splitncnn_3 /LeakyRelu_24_output_0_splitncnn_1 /LeakyRelu_25_output_0_splitncnn_1 /LeakyRelu_26_output_0_splitncnn_1 /Concat_26_output_0
Convolution      /Conv_34                 1 1 /Concat_26_output_0 /LeakyRelu_27_output_0 0=32 1=3 4=1 5=1 6=46080 9=2 -23310=1,2.000000e-01
Concat           /Concat_27               5 1 /Add_7_output_0_splitncnn_2 /LeakyRelu_24_output_0_splitncnn_0 /LeakyRelu_25_output_0_splitncnn_0 /LeakyRelu_26_output_0_splitncnn_0 /LeakyRelu_27_output_0 /Concat_27_output_0
Convolution      /Conv_35                 1 1 /Concat_27_output_0 /Conv_35_output_0 0=64 1=3 4=1 5=1 6=110592
Eltwise          /Add_8                   2 1 /Conv_35_output_0 /Add_7_output_0_splitncnn_1 /Add_8_output_0 0=1 -23301=2,2.000000e-01,1.000000e+00
Split            splitncnn_28             1 6 /Add_8_output_0 /Add_8_output_0_splitncnn_0 /Add_8_output_0_splitncnn_1 /Add_8_output_0_splitncnn_2 /Add_8_output_0_splitncnn_3 /Add_8_output_0_splitncnn_4 /Add_8_output_0_splitncnn_5
Convolution      /Conv_36                 1 1 /Add_8_output_0_splitncnn_5 /LeakyRelu_28_output_0 0=32 1=3 4=1 5=1 6=18432 9=2 -23310=1,2.000000e-01
Split            splitncnn_29             1 4 /LeakyRelu_28_output_0 /LeakyRelu_28_output_0_splitncnn_0 /LeakyRelu_28_output_0_splitncnn_1 /LeakyRelu_28_output_0_splitncnn_2 /LeakyRelu_28_output_0_splitncnn_3
Concat           /Concat_28               2 1 /Add_8_output_0_splitncnn_4 /LeakyRelu_28_output_0_splitncnn_3 /Concat_28_output_0
Convolution      /Conv_37                 1 1 /Concat_28_output_0 /LeakyRelu_29_output_0 0=32 1=3 4=1 5=1 6=27648 9=2 -23310=1,2.000000e-01
Split            splitncnn_30             1 3 /LeakyRelu_29_output_0 /LeakyRelu_29_output_0_splitncnn_0 /LeakyRelu_29_output_0_splitncnn_1 /LeakyRelu_29_output_0_splitncnn_2
Concat           /Concat_29               3 1 /Add_8_output_0_splitncnn_3 /LeakyRelu_28_output_0_splitncnn_2 /LeakyRelu_29_output_0_splitncnn_2 /Concat_29_output_0
Convolution      /Conv_38                 1 1 /Concat_29_output_0 /LeakyRelu_30_output_0 0=32 1=3 4=1 5=1 6=36864 9=2 -23310=1,2.000000e-01
Split            splitncnn_31             1 2 /LeakyRelu_30_output_0 /LeakyRelu_30_output_0_splitncnn_0 /LeakyRelu_30_output_0_splitncnn_1
Concat           /Concat_30               4 1 /Add_8_output_0_splitncnn_2 /LeakyRelu_28_output_0_splitncnn_1 /LeakyRelu_29_output_0_splitncnn_1 /LeakyRelu_30_output_0_splitncnn_1 /Concat_30_output_0
Convolution      /Conv_39                 1 1 /Concat_30_output_0 /LeakyRelu_31_output_0 0=32 1=3 4=1 5=1 6=46080 9=2 -23310=1,2.000000e-01
Concat           /Concat_31               5 1 /Add_8_output_0_splitncnn_1 /LeakyRelu_28_output_0_splitncnn_0 /LeakyRelu_29_output_0_splitncnn_0 /LeakyRelu_30_output_0_splitncnn_0 /LeakyRelu_31_output_0 /Concat_31_output_0
Convolution      /Conv_40                 1 1 /Concat_31_output_0 /Conv_40_output_0 0=64 1=3 4=1 5=1 6=110592
Eltwise          /Add_9                   2 1 /Conv_40_output_0 /Add_8_output_0_splitncnn_0 /Add_9_output_0 0=1 -23301=2,2.000000e-01,1.000000e+00
Split            splitncnn_32             1 6 /Add_9_output_0 /Add_9_output_0_splitncnn_0 /Add_9_output_0_splitncnn_1 /Add_9_output_0_splitncnn_2 /Add_9_output_0_splitncnn_3 /Add_9_output_0_splitncnn_4 /Add_9_output_0_splitncnn_5
Convolution      /Conv_41                 1 1 /Add_9_output_0_splitncnn_5 /LeakyRelu_32_output_0 0=32 1=3 4=1 5=1 6=18432 9=2 -23310=1,2.000000e-01
Split            splitncnn_33             1 4 /LeakyRelu_32_output_0 /LeakyRelu_32_output_0_splitncnn_0 /LeakyRelu_32_output_0_splitncnn_1 /LeakyRelu_32_output_0_splitncnn_2 /LeakyRelu_32_output_0_splitncnn_3
Concat           /Concat_32               2 1 /Add_9_output_0_splitncnn_4 /LeakyRelu_32_output_0_splitncnn_3 /Concat_32_output_0
Convolution      /Conv_42                 1 1 /Concat_32_output_0 /LeakyRelu_33_output_0 0=32 1=3 4=1 5=1 6=27648 9=2 -23310=1,2.000000e-01
Split            splitncnn_34             1 3 /LeakyRelu_33_output_0 /LeakyRelu_33_output_0_splitncnn_0 /LeakyRelu_33_output_0_splitncnn_1 /LeakyRelu_33_output_0_splitncnn_2
Concat           /Concat_33               3 1 /Add_9_output_0_splitncnn_3 /LeakyRelu_32_output_0_splitncnn_2 /LeakyRelu_33_output_0_splitncnn_2 /Concat_33_output_0
Convolution      /Conv_43                 1 1 /Concat_33_output_0 /LeakyRelu_34_output_0 0=32 1=3 4=1 5=1 6=36864 9=2 -23310=1,2.000000e-01
Split            splitncnn_35             1 2 /LeakyRelu_34_output_0 /LeakyRelu_34_output_0_splitncnn_0 /LeakyRelu_34_output_0_splitncnn_1
Concat           /Concat_34               4 1 /Add_9_output_0_splitncnn_2 /LeakyRelu_32_output_0_splitncnn_1 /LeakyRelu_33_output_0_splitncnn_1 /LeakyRelu_34_output_0_splitncnn_1 /Concat_34_output_0
Convolution      /Conv_44                 1 1 /Concat_34_output_0 /LeakyRelu_35_output_0 0=32 1=3 4=1 5=1 6=46080 9=2 -23310=1,2.000000e-01
Concat           /Concat_35               5 1 /Add_9_output_0_splitncnn_1 /LeakyRelu_32_output_0_splitncnn_0 /LeakyRelu_33_output_0_splitncnn_0 /LeakyRelu_34_output_0_splitncnn_0 /LeakyRelu_35_output_0 /Concat_35_output_0
Convolution      /Conv_45                 1 1 /Concat_35_output_0 /Conv_45_output_0 0=64 1=3 4=1 5=1 6=110592
Eltwise          /Add_10                  2 1 /Conv_45_output_0 /Add_9_output_0_splitncnn_0 /Add_10_output_0 0=1 -23301=2,2.000000e-01,1.000000e+00
Eltwise          /Add_11                  2 1 /Add_10_output_0 /Add_7_output_0_splitncnn_0 /Add_11_output_0 0=1 -23301=2,2.000000e-01,1.000000e+00
Split            splitncnn_36             1 7 /Add_11_output_0 /Add_11_output_0_splitncnn_0 /Add_11_output_0_splitncnn_1 /Add_11_output_0_splitncnn_2 /Add_11_output_0_splitncnn_3 /Add_11_output_0_splitncnn_4 /Add_11_output_0_splitncnn_5 /Add_11_output_0_splitncnn_6
Convolution      /Conv_46                 1 1 /Add_11_output_0_splitncnn_6 /LeakyRelu_36_output_0 0=32 1=3 4=1 5=1 6=18432 9=2 -23310=1,2.000000e-01
Split            splitncnn_37             1 4 /LeakyRelu_36_output_0 /LeakyRelu_36_output_0_splitncnn_0 /LeakyRelu_36_output_0_splitncnn_1 /LeakyRelu_36_output_0_splitncnn_2 /LeakyRelu_36_output_0_splitncnn_3
Concat           /Concat_36               2 1 /Add_11_output_0_splitncnn_5 /LeakyRelu_36_output_0_splitncnn_3 /Concat_36_output_0
Convolution      /Conv_47                 1 1 /Concat_36_output_0 /LeakyRelu_37_output_0 0=32 1=3 4=1 5=1 6=27648 9=2 -23310=1,2.000000e-01
Split            splitncnn_38             1 3 /LeakyRelu_37_output_0 /LeakyRelu_37_output_0_splitncnn_0 /LeakyRelu_37_output_0_splitncnn_1 /LeakyRelu_37_output_0_splitncnn_2
Concat           /Concat_37               3 1 /Add_11_output_0_splitncnn_4 /LeakyRelu_36_output_0_splitncnn_2 /LeakyRelu_37_output_0_splitncnn_2 /Concat_37_output_0
Convolution      /Conv_48                 1 1 /Concat_37_output_0 /LeakyRelu_38_output_0 0=32 1=3 4=1 5=1 6=36864 9=2 -23310=1,2.000000e-01
Split            splitncnn_39             1 2 /LeakyRelu_38_output_0 /LeakyRelu_38_output_0_splitncnn_0 /LeakyRelu_38_output_0_splitncnn_1
Concat           /Concat_38               4 1 /Add_11_output_0_splitncnn_3 /LeakyRelu_36_output_0_splitncnn_1 /LeakyRelu_37_output_0_splitncnn_1 /LeakyRelu_38_output_0_splitncnn_1 /Concat_38_output_0
Convolution      /Conv_49                 1 1 /Concat_38_output_0 /LeakyRelu_39_output_0 0=32 1=3 4=1 5=1 6=46080 9=2 -23310=1,2.000000e-01
Concat           /Concat_39               5 1 /Add_11_output_0_splitncnn_2 /LeakyRelu_36_output_0_splitncnn_0 /LeakyRelu_37_output_0_splitncnn_0 /LeakyRelu_38_output_0_splitncnn_0 /LeakyRelu_39_output_0 /Concat_39_output_0
Convolution      /Conv_50                 1 1 /Concat_39_output_0 /Conv_50_output_0 0=64 1=3 4=1 5=1 6=110592
Eltwise          /Add_12                  2 1 /Conv_50_output_0 /Add_11_output_0_splitncnn_1 /Add_12_output_0 0=1 -23301=2,2.000000e-01,1.000000e+00
Split            splitncnn_40             1 6 /Add_12_output_0 /Add_12_output_0_splitncnn_0 /Add_12_output_0_splitncnn_1 /Add_12_output_0_splitncnn_2 /Add_12_output_0_splitncnn_3 /Add_12_output_0_splitncnn_4 /Add_12_output_0_splitncnn_5
Convolution      /Conv_51                 1 1 /Add_12_output_0_splitncnn_5 /LeakyRelu_40_output_0 0=32 1=3 4=1 5=1 6=18432 9=2 -23310=1,2.000000e-01
Split            splitncnn_41             1 4 /LeakyRelu_40_output_0 /LeakyRelu_40_output_0_splitncnn_0 /LeakyRelu_40_output_0_splitncnn_1 /LeakyRelu_40_output_0_splitncnn_2 /LeakyRelu_40_output_0_splitncnn_3
Concat           /Concat_40               2 1 /Add_12_output_0_splitncnn_4 /LeakyRelu_40_output_0_splitncnn_3 /Concat_40_output_0
Convolution      /Conv_52                 1 1 /Concat_40_output_0 /LeakyRelu_41_output_0 0=32 1=3 4=1 5=1 6=27648 9=2 -23310=1,2.000000e-01
Split            splitncnn_42             1 3 /LeakyRelu_41_output_0 /LeakyRelu_41_output_0_splitncnn_0 /LeakyRelu_41_output_0_splitncnn_1 /LeakyRelu_41_output_0_splitncnn_2
Concat           /Concat_41               3 1 /Add_12_output_0_splitncnn_3 /LeakyRelu_40_output_0_splitncnn_2 /LeakyRelu_41_output_0_splitncnn_2 /Concat_41_output_0
Convolution      /Conv_53                 1 1 /Concat_41_output_0 /LeakyRelu_42_output_0 0=32 1=3 4=1 5=1 6=36864 9=2 -23310=1,2.000000e-01
Split            splitncnn_43             1 2 /LeakyRelu_42_output_0 /LeakyRelu_42_output_0_splitncnn_0 /LeakyRelu_42_output_0_splitncnn_1
Concat           /Concat_42               4 1 /Add_12_output_0_splitncnn_2 /LeakyRelu_40_output_0_splitncnn_1 /LeakyRelu_41_output_0_splitncnn_1 /LeakyRelu_42_output_0_splitncnn_1 /Concat_42_output_0
Convolution      /Conv_54                 1 1 /Concat_42_output_0 /LeakyRelu_43_output_0 0=32 1=3 4=1 5=1 6=46080 9=2 -23310=1,2.000000e-01
Concat           /Concat_43               5 1 /Add_12_output_0_splitncnn_1 /LeakyRelu_40_output_0_splitncnn_0 /LeakyRelu_41_output_0_splitncnn_0 /LeakyRelu_42_output_0_splitncnn_0 /LeakyRelu_43_output_0 /Concat_43_output_0
Convolution      /Conv_55                 1 1 /Concat_43_output_0 /Conv_55_output_0 0=64 1=3 4=1 5=1 6=110592
Eltwise          /Add_13                  2 1 /Conv_55_output_0 /Add_12_output_0_splitncnn_0 /Add_13_output_0 0=1 -23301=2,2.000000e-01,1.000000e+00
Split            splitncnn_44             1 6 /Add_13_output_0 /Add_13_output_0_splitncnn_0 /Add_13_output_0_splitncnn_1 /Add_13_output_0_splitncnn_2 /Add_13_output_0_splitncnn_3 /Add_13_output_0_splitncnn_4 /Add_13_output_0_splitncnn_5
Convolution      /Conv_56                 1 1 /Add_13_output_0_splitncnn_5 /LeakyRelu_44_output_0 0=32 1=3 4=1 5=1 6=18432 9=2 -23310=1,2.000000e-01
Split            splitncnn_45             1 4 /LeakyRelu_44_output_0 /LeakyRelu_44_output_0_splitncnn_0 /LeakyRelu_44_output_0_splitncnn_1 /LeakyRelu_44_output_0_splitncnn_2 /LeakyRelu_44_output_0_splitncnn_3
Concat           /Concat_44               2 1 /Add_13_output_0_splitncnn_4 /LeakyRelu_44_output_0_splitncnn_3 /Concat_44_output_0
Convolution      /Conv_57                 1 1 /Concat_44_output_0 /LeakyRelu_45_output_0 0=32 1=3 4=1 5=1 6=27648 9=2 -23310=1,2.000000e-01
Split            splitncnn_46             1 3 /LeakyRelu_45_output_0 /LeakyRelu_45_output_0_splitncnn_0 /LeakyRelu_45_output_0_splitncnn_1 /LeakyRelu_45_output_0_splitncnn_2
Concat           /Concat_45               3 1 /Add_13_output_0_splitncnn_3 /LeakyRelu_44_output_0_splitncnn_2 /LeakyRelu_45_output_0_splitncnn_2 /Concat_45_output_0
Convolution      /Conv_58                 1 1 /Concat_45_output_0 /LeakyRelu_46_output_0 0=32 1=3 4=1 5=1 6=36864 9=2 -23310=1,2.000000e-01
Split            splitncnn_47             1 2 /LeakyRelu_46_output_0 /LeakyRelu_46_output_0_splitncnn_0 /LeakyRelu_46_output_0_splitncnn_1
Concat           /Concat_46               4 1 /Add_13_output_0_splitncnn_2 /LeakyRelu_44_output_0_splitncnn_1 /LeakyRelu_45_output_0_splitncnn_1 /LeakyRelu_46_output_0_splitncnn_1 /Concat_46_output_0
Convolution      /Conv_59                 1 1 /Concat_46_output_0 /LeakyRelu_47_output_0 0=32 1=3 4=1 5=1 6=46080 9=2 -23310=1,2.000000e-01
Concat           /Concat_47               5 1 /Add_13_output_0_splitncnn_1 /LeakyRelu_44_output_0_splitncnn_0 /LeakyRelu_45_output_0_splitncnn_0 /LeakyRelu_46_output_0_splitncnn_0 /LeakyRelu_47_output_0 /Concat_47_output_0
Convolution      /Conv_60                 1 1 /Concat_47_output_0 /Conv_60_output_0 0=64 1=3 4=1 5=1 6=110592
Eltwise          /Add_14                  2 1 /Conv_60_output_0 /Add_13_output_0_splitncnn_0 /Add_14_output_0 0=1 -23301=2,2.000000e-01,1.000000e+00
Eltwise          /Add_15                  2 1 /Add_14_output_0 /Add_11_output_0_splitncnn_0 /Add_15_output_0 0=1 -23301=2,2.000000e-01,1.000000e+00
Split            splitncnn_48             1 7 /Add_15_output_0 /Add_15_output_0_splitncnn_0 /Add_15_output_0_splitncnn_1 /Add_15_output_0_splitncnn_2 /Add_15_output_0_splitncnn_3 /Add_15_output_0_splitncnn_4 /Add_15_output_0_splitncnn_5 /Add_15_output_0_splitncnn_6
Convolution      /Conv_61                 1 1 /Add_15_output_0_splitncnn_6 /LeakyRelu_48_output_0 0=32 1=3 4=1 5=1 6=18432 9=2 -23310=1,2.000000e-01
Split            splitncnn_49             1 4 /LeakyRelu_48_output_0 /LeakyRelu_48_output_0_splitncnn_0 /LeakyRelu_48_output_0_splitncnn_1 /LeakyRelu_48_output_0_splitncnn_2 /LeakyRelu_48_output_0_splitncnn_3
Concat           /Concat_48               2 1 /Add_15_output_0_splitncnn_5 /LeakyRelu_48_output_0_splitncnn_3 /Concat_48_output_0
Convolution      /Conv_62                 1 1 /Concat_48_output_0 /LeakyRelu_49_output_0 0=32 1=3 4=1 5=1 6=27648 9=2 -23310=1,2.000000e-01
Split            splitncnn_50             1 3 /LeakyRelu_49_output_0 /LeakyRelu_49_output_0_splitncnn_0 /LeakyRelu_49_output_0_splitncnn_1 /LeakyRelu_49_output_0_splitncnn_2
Concat           /Concat_49               3 1 /Add_15_output_0_splitncnn_4 /LeakyRelu_48_output_0_splitncnn_2 /LeakyRelu_49_output_0_splitncnn_2 /Concat_49_output_0
Convolution      /Conv_63                 1 1 /Concat_49_output_0 /LeakyRelu_50_output_0 0=32 1=3 4=1 5=1 6=36864 9=2 -23310=1,2.000000e-01
Split            splitncnn_51             1 2 /LeakyRelu_50_output_0 /LeakyRelu_50_output_0_splitncnn_0 /LeakyRelu_50_output_0_splitncnn_1
Concat           /Concat_50               4 1 /Add_15_output_0_splitncnn_3 /LeakyRelu_48_output_0_splitncnn_1 /LeakyRelu_49_output_0_splitncnn_1 /LeakyRelu_50_output_0_splitncnn_1 /Concat_50_output_0
Convolution      /Conv_64                 1 1 /Concat_50_output_0 /LeakyRelu_51_output_0 0=32 1=3 4=1 5=1 6=46080 9=2 -23310=1,2.000000e-01
Concat           /Concat_51               5 1 /Add_15_output_0_splitncnn_2 /LeakyRelu_48_output_0_splitncnn_0 /LeakyRelu_49_output_0_splitncnn_0 /LeakyRelu_50_output_0_splitncnn_0 /LeakyRelu_51_output_0 /Concat_51_output_0
Convolution      /Conv_65                 1 1 /Concat_51_output_0 /Conv_65_output_0 0=64 1=3 4=1 5=1 6=110592
Eltwise          /Add_16                  2 1 /Conv_65_output_0 /Add_15_output_0_splitncnn_1 /Add_16_output_0 0=1 -23301=2,2.000000e-01,1.000000e+00
Split            splitncnn_52             1 6 /Add_16_output_0 /Add_16_output_0_splitncnn_0 /Add_16_output_0_splitncnn_1 /Add_16_output_0_splitncnn_2 /Add_16_output_0_splitncnn_3 /Add_16_output_0_splitncnn_4 /Add_16_output_0_splitncnn_5
Convolution      /Conv_66                 1 1 /Add_16_output_0_splitncnn_5 /LeakyRelu_52_output_0 0=32 1=3 4=1 5=1 6=18432 9=2 -23310=1,2.000000e-01
Split            splitncnn_53             1 4 /LeakyRelu_52_output_0 /LeakyRelu_52_output_0_splitncnn_0 /LeakyRelu_52_output_0_splitncnn_1 /LeakyRelu_52_output_0_splitncnn_2 /LeakyRelu_52_output_0_splitncnn_3
Concat           /Concat_52               2 1 /Add_16_output_0_splitncnn_4 /LeakyRelu_52_output_0_splitncnn_3 /Concat_52_output_0
Convolution      /Conv_67                 1 1 /Concat_52_output_0 /LeakyRelu_53_output_0 0=32 1=3 4=1 5=1 6=27648 9=2 -23310=1,2.000000e-01
Split            splitncnn_54             1 3 /LeakyRelu_53_output_0 /LeakyRelu_53_output_0_splitncnn_0 /LeakyRelu_53_output_0_splitncnn_1 /LeakyRelu_53_output_0_splitncnn_2
Concat           /Concat_53               3 1 /Add_16_output_0_splitncnn_3 /LeakyRelu_52_output_0_splitncnn_2 /LeakyRelu_53_output_0_splitncnn_2 /Concat_53_output_0
Convolution      /Conv_68                 1 1 /Concat_53_output_0 /LeakyRelu_54_output_0 0=32 1=3 4=1 5=1 6=36864 9=2 -23310=1,2.000000e-01
Split            splitncnn_55             1 2 /LeakyRelu_54_output_0 /LeakyRelu_54_output_0_splitncnn_0 /LeakyRelu_54_output_0_splitncnn_1
Concat           /Concat_54               4 1 /Add_16_output_0_splitncnn_2 /LeakyRelu_52_output_0_splitncnn_1 /LeakyRelu_53_output_0_splitncnn_1 /LeakyRelu_54_output_0_splitncnn_1 /Concat_54_output_0
Convolution      /Conv_69                 1 1 /Concat_54_output_0 /LeakyRelu_55_output_0 0=32 1=3 4=1 5=1 6=46080 9=2 -23310=1,2.000000e-01
Concat           /Concat_55               5 1 /Add_16_output_0_splitncnn_1 /LeakyRelu_52_output_0_splitncnn_0 /LeakyRelu_53_output_0_splitncnn_0 /LeakyRelu_54_output_0_splitncnn_0 /LeakyRelu_55_output_0 /Concat_55_output_0
Convolution      /Conv_70                 1 1 /Concat_55_output_0 /Conv_70_output_0 0=64 1=3 4=1 5=1 6=110592
Eltwise          /Add_17                  2 1 /Conv_70_output_0 /Add_16_output_0_splitncnn_0 /Add_17_output_0 0=1 -23301=2,2.000000e-01,1.000000e+00
Split            splitncnn_56             1 6 /Add_17_output_0 /Add_17_output_0_splitncnn_0 /Add_17_output_0_splitncnn_1 /Add_17_output_0_splitncnn_2 /Add_17_output_0_splitncnn_3 /Add_17_output_0_splitncnn_4 /Add_17_output_0_splitncnn_5
Convolution      /Conv_71                 1 1 /Add_17_output_0_splitncnn_5 /LeakyRelu_56_output_0 0=32 1=3 4=1 5=1 6=18432 9=2 -23310=1,2.000000e-01
Split            splitncnn_57             1 4 /LeakyRelu_56_output_0 /LeakyRelu_56_output_0_splitncnn_0 /LeakyRelu_56_output_0_splitncnn_1 /LeakyRelu_56_output_0_splitncnn_2 /LeakyRelu_56_output_0_splitncnn_3
Concat           /Concat_56               2 1 /Add_17_output_0_splitncnn_4 /LeakyRelu_56_output_0_splitncnn_3 /Concat_56_output_0
Convolution      /Conv_72                 1 1 /Concat_56_output_0 /LeakyRelu_57_output_0 0=32 1=3 4=1 5=1 6=27648 9=2 -23310=1,2.000000e-01
Split            splitncnn_58             1 3 /LeakyRelu_57_output_0 /LeakyRelu_57_output_0_splitncnn_0 /LeakyRelu_57_output_0_splitncnn_1 /LeakyRelu_57_output_0_splitncnn_2
Concat           /Concat_57               3 1 /Add_17_output_0_splitncnn_3 /LeakyRelu_56_output_0_splitncnn_2 /LeakyRelu_57_output_0_splitncnn_2 /Concat_57_output_0
Convolution      /Conv_73                 1 1 /Concat_57_output_0 /LeakyRelu_58_output_0 0=32 1=3 4=1 5=1 6=36864 9=2 -23310=1,2.000000e-01
Split            splitncnn_59             1 2 /LeakyRelu_58_output_0 /LeakyRelu_58_output_0_splitncnn_0 /LeakyRelu_58_output_0_splitncnn_1
Concat           /Concat_58               4 1 /Add_17_output_0_splitncnn_2 /LeakyRelu_56_output_0_splitncnn_1 /LeakyRelu_57_output_0_splitncnn_1 /LeakyRelu_58_output_0_splitncnn_1 /Concat_58_output_0
Convolution      /Conv_74                 1 1 /Concat_58_output_0 /LeakyRelu_59_output_0 0=32 1=3 4=1 5=1 6=46080 9=2 -23310=1,2.000000e-01
Concat           /Concat_59               5 1 /Add_17_output_0_splitncnn_1 /LeakyRelu_56_output_0_splitncnn_0 /LeakyRelu_57_output_0_splitncnn_0 /LeakyRelu_58_output_0_splitncnn_0 /LeakyRelu_59_output_0 /Concat_59_output_0
Convolution      /Conv_75                 1 1 /Concat_59_output_0 /Conv_75_output_0 0=64 1=3 4=1 5=1 6=110592
Eltwise          /Add_18                  2 1 /Conv_75_output_0 /Add_17_output_0_splitncnn_0 /Add_18_output_0 0=1 -23301=2,2.000000e-01,1.000000e+00
Eltwise          /Add_19                  2 1 /Add_18_output_0 /Add_15_output_0_splitncnn_0 /Add_19_output_0 0=1 -23301=2,2.000000e-01,1.000000e+00
Split            splitncnn_60             1 7 /Add_19_output_0 /Add_19_output_0_splitncnn_0 /Add_19_output_0_splitncnn_1 /Add_19_output_0_splitncnn_2 /Add_19_output_0_splitncnn_3 /Add_19_output_0_splitncnn_4 /Add_19_output_0_splitncnn_5 /Add_19_output_0_splitncnn_6
Convolution      /Conv_76                 1 1 /Add_19_output_0_splitncnn_6 /LeakyRelu_60_output_0 0=32 1=3 4=1 5=1 6=18432 9=2 -23310=1,2.000000e-01
Split            splitncnn_61             1 4 /LeakyRelu_60_output_0 /LeakyRelu_60_output_0_splitncnn_0 /LeakyRelu_60_output_0_splitncnn_1 /LeakyRelu_60_output_0_splitncnn_2 /LeakyRelu_60_output_0_splitncnn_3
Concat           /Concat_60               2 1 /Add_19_output_0_splitncnn_5 /LeakyRelu_60_output_0_splitncnn_3 /Concat_60_output_0
Convolution      /Conv_77                 1 1 /Concat_60_output_0 /LeakyRelu_61_output_0 0=32 1=3 4=1 5=1 6=27648 9=2 -23310=1,2.000000e-01
Split            splitncnn_62             1 3 /LeakyRelu_61_output_0 /LeakyRelu_61_output_0_splitncnn_0 /LeakyRelu_61_output_0_splitncnn_1 /LeakyRelu_61_output_0_splitncnn_2
Concat           /Concat_61               3 1 /Add_19_output_0_splitncnn_4 /LeakyRelu_60_output_0_splitncnn_2 /LeakyRelu_61_output_0_splitncnn_2 /Concat_61_output_0
Convolution      /Conv_78                 1 1 /Concat_61_output_0 /LeakyRelu_62_output_0 0=32 1=3 4=1 5=1 6=36864 9=2 -23310=1,2.000000e-01
Split            splitncnn_63             1 2 /LeakyRelu_62_output_0 /LeakyRelu_62_output_0_splitncnn_0 /LeakyRelu_62_output_0_splitncnn_1
Concat           /Concat_62               4 1 /Add_19_output_0_splitncnn_3 /LeakyRelu_60_output_0_splitncnn_1 /LeakyRelu_61_output_0_splitncnn_1 /LeakyRelu_62_output_0_splitncnn_1 /Concat_62_output_0
Convolution      /Conv_79                 1 1 /Concat_62_output_0 /LeakyRelu_63_output_0 0=32 1=3 4=1 5=1 6=46080 9=2 -23310=1,2.000000e-01
Concat           /Concat_63               5 1 /Add_19_output_0_splitncnn_2 /LeakyRelu_60_output_0_splitncnn_0 /LeakyRelu_61_output_0_splitncnn_0 /LeakyRelu_62_output_0_splitncnn_0 /LeakyRelu_63_output_0 /Concat_63_output_0
Convolution      /Conv_80                 1 1 /Concat_63_output_0 /Conv_80_output_0 0=64 1=3 4=1 5=1 6=110592
Eltwise          /Add_20                  2 1 /Conv_80_output_0 /Add_19_output_0_splitncnn_1 /Add_20_output_0 0=1 -23301=2,2.000000e-01,1.000000e+00
Split            splitncnn_64             1 6 /Add_20_output_0 /Add_20_output_0_splitncnn_0 /Add_20_output_0_splitncnn_1 /Add_20_output_0_splitncnn_2 /Add_20_output_0_splitncnn_3 /Add_20_output_0_splitncnn_4 /Add_20_output_0_splitncnn_5
Convolution      /Conv_81                 1 1 /Add_20_output_0_splitncnn_5 /LeakyRelu_64_output_0 0=32 1=3 4=1 5=1 6=18432 9=2 -23310=1,2.000000e-01
Split            splitncnn_65             1 4 /LeakyRelu_64_output_0 /LeakyRelu_64_output_0_splitncnn_0 /LeakyRelu_64_output_0_splitncnn_1 /LeakyRelu_64_output_0_splitncnn_2 /LeakyRelu_64_output_0_splitncnn_3
Concat           /Concat_64               2 1 /Add_20_output_0_splitncnn_4 /LeakyRelu_64_output_0_splitncnn_3 /Concat_64_output_0
Convolution      /Conv_82                 1 1 /Concat_64_output_0 /LeakyRelu_65_output_0 0=32 1=3 4=1 5=1 6=27648 9=2 -23310=1,2.000000e-01
Split            splitncnn_66             1 3 /LeakyRelu_65_output_0 /LeakyRelu_65_output_0_splitncnn_0 /LeakyRelu_65_output_0_splitncnn_1 /LeakyRelu_65_output_0_splitncnn_2
Concat           /Concat_65               3 1 /Add_20_output_0_splitncnn_3 /LeakyRelu_64_output_0_splitncnn_2 /LeakyRelu_65_output_0_splitncnn_2 /Concat_65_output_0
Convolution      /Conv_83                 1 1 /Concat_65_output_0 /LeakyRelu_66_output_0 0=32 1=3 4=1 5=1 6=36864 9=2 -23310=1,2.000000e-01
Split            splitncnn_67             1 2 /LeakyRelu_66_output_0 /LeakyRelu_66_output_0_splitncnn_0 /LeakyRelu_66_output_0_splitncnn_1
Concat           /Concat_66               4 1 /Add_20_output_0_splitncnn_2 /LeakyRelu_64_output_0_splitncnn_1 /LeakyRelu_65_output_0_splitncnn_1 /LeakyRelu_66_output_0_splitncnn_1 /Concat_66_output_0
Convolution      /Conv_84                 1 1 /Concat_66_output_0 /LeakyRelu_67_output_0 0=32 1=3 4=1 5=1 6=46080 9=2 -23310=1,2.000000e-01
Concat           /Concat_67               5 1 /Add_20_output_0_splitncnn_1 /LeakyRelu_64_output_0_splitncnn_0 /LeakyRelu_65_output_0_splitncnn_0 /LeakyRelu_66_output_0_splitncnn_0 /LeakyRelu_67_output_0 /Concat_67_output_0
Convolution      /Conv_85                 1 1 /Concat_67_output_0 /Conv_85_output_0 0=64 1=3 4=1 5=1 6=110592
Eltwise          /Add_21                  2 1 /Conv_85_output_0 /Add_20_output_0_splitncnn_0 /Add_21_output_0 0=1 -23301=2,2.000000e-01,1.000000e+00
Split            splitncnn_68             1 6 /Add_21_output_0 /Add_21_output_0_splitncnn_0 /Add_21_output_0_splitncnn_1 /Add_21_output_0_splitncnn_2 /Add_21_output_0_splitncnn_3 /Add_21_output_0_splitncnn_4 /Add_21_output_0_splitncnn_5
Convolution      /Conv_86                 1 1 /Add_21_output_0_splitncnn_5 /LeakyRelu_68_output_0 0=32 1=3 4=1 5=1 6=18432 9=2 -23310=1,2.000000e-01
Split            splitncnn_69             1 4 /LeakyRelu_68_output_0 /LeakyRelu_68_output_0_splitncnn_0 /LeakyRelu_68_output_0_splitncnn_1 /LeakyRelu_68_output_0_splitncnn_2 /LeakyRelu_68_output_0_splitncnn_3
Concat           /Concat_68               2 1 /Add_21_output_0_splitncnn_4 /LeakyRelu_68_output_0_splitncnn_3 /Concat_68_output_0
Convolution      /Conv_87                 1 1 /Concat_68_output_0 /LeakyRelu_69_output_0 0=32 1=3 4=1 5=1 6=27648 9=2 -23310=1,2.000000e-01
Split            splitncnn_70             1 3 /LeakyRelu_69_output_0 /LeakyRelu_69_output_0_splitncnn_0 /LeakyRelu_69_output_0_splitncnn_1 /LeakyRelu_69_output_0_splitncnn_2
Concat           /Concat_69               3 1 /Add_21_output_0_splitncnn_3 /LeakyRelu_68_output_0_splitncnn_2 /LeakyRelu_69_output_0_splitncnn_2 /Concat_69_output_0
Convolution      /Conv_88                 1 1 /Concat_69_output_0 /LeakyRelu_70_output_0 0=32 1=3 4=1 5=1 6=36864 9=2 -23310=1,2.000000e-01
Split            splitncnn_71             1 2 /LeakyRelu_70_output_0 /LeakyRelu_70_output_0_splitncnn_0 /LeakyRelu_70_output_0_splitncnn_1
Concat           /Concat_70               4 1 /Add_21_output_0_splitncnn_2 /LeakyRelu_68_output_0_splitncnn_1 /LeakyRelu_69_output_0_splitncnn_1 /LeakyRelu_70_output_0_splitncnn_1 /Concat_70_output_0
Convolution      /Conv_89                 1 1 /Concat_70_output_0 /LeakyRelu_71_output_0 0=32 1=3 4=1 5=1 6=46080 9=2 -23310=1,2.000000e-01
Concat           /Concat_71               5 1 /Add_21_output_0_splitncnn_1 /LeakyRelu_68_output_0_splitncnn_0 /LeakyRelu_69_output_0_splitncnn_0 /LeakyRelu_70_output_0_splitncnn_0 /LeakyRelu_71_output_0 /Concat_71_output_0
Convolution      /Conv_90                 1 1 /Concat_71_output_0 /Conv_90_output_0 0=64 1=3 4=1 5=1 6=110592
Eltwise          /Add_22                  2 1 /Conv_90_output_0 /Add_21_output_0_splitncnn_0 /Add_22_output_0 0=1 -23301=2,2.000000e-01,1.000000e+00
Eltwise          /Add_23                  2 1 /Add_22_output_0 /Add_19_output_0_splitncnn_0 /Add_23_output_0 0=1 -23301=2,2.000000e-01,1.000000e+00
Split            splitncnn_72             1 7 /Add_23_output_0 /Add_23_output_0_splitncnn_0 /Add_23_output_0_splitncnn_1 /Add_23_output_0_splitncnn_2 /Add_23_output_0_splitncnn_3 /Add_23_output_0_splitncnn_4 /Add_23_output_0_splitncnn_5 /Add_23_output_0_splitncnn_6
Convolution      /Conv_91                 1 1 /Add_23_output_0_splitncnn_6 /LeakyRelu_72_output_0 0=32 1=3 4=1 5=1 6=18432 9=2 -23310=1,2.000000e-01
Split            splitncnn_73             1 4 /LeakyRelu_72_output_0 /LeakyRelu_72_output_0_splitncnn_0 /LeakyRelu_72_output_0_splitncnn_1 /LeakyRelu_72_output_0_splitncnn_2 /LeakyRelu_72_output_0_splitncnn_3
Concat           /Concat_72               2 1 /Add_23_output_0_splitncnn_5 /LeakyRelu_72_output_0_splitncnn_3 /Concat_72_output_0
Convolution      /Conv_92                 1 1 /Concat_72_output_0 /LeakyRelu_73_output_0 0=32 1=3 4=1 5=1 6=27648 9=2 -23310=1,2.000000e-01
Split            splitncnn_74             1 3 /LeakyRelu_73_output_0 /LeakyRelu_73_output_0_splitncnn_0 /LeakyRelu_73_output_0_splitncnn_1 /LeakyRelu_73_output_0_splitncnn_2
Concat           /Concat_73               3 1 /Add_23_output_0_splitncnn_4 /LeakyRelu_72_output_0_splitncnn_2 /LeakyRelu_73_output_0_splitncnn_2 /Concat_73_output_0
Convolution      /Conv_93                 1 1 /Concat_73_output_0 /LeakyRelu_74_output_0 0=32 1=3 4=1 5=1 6=36864 9=2 -23310=1,2.000000e-01
Split            splitncnn_75             1 2 /LeakyRelu_74_output_0 /LeakyRelu_74_output_0_splitncnn_0 /LeakyRelu_74_output_0_splitncnn_1
Concat           /Concat_74               4 1 /Add_23_output_0_splitncnn_3 /LeakyRelu_72_output_0_splitncnn_1 /LeakyRelu_73_output_0_splitncnn_1 /LeakyRelu_74_output_0_splitncnn_1 /Concat_74_output_0
Convolution      /Conv_94                 1 1 /Concat_74_output_0 /LeakyRelu_75_output_0 0=32 1=3 4=1 5=1 6=46080 9=2 -23310=1,2.000000e-01
Concat           /Concat_75               5 1 /Add_23_output_0_splitncnn_2 /LeakyRelu_72_output_0_splitncnn_0 /LeakyRelu_73_output_0_splitncnn_0 /LeakyRelu_74_output_0_splitncnn_0 /LeakyRelu_75_output_0 /Concat_75_output_0
Convolution      /Conv_95                 1 1 /Concat_75_output_0 /Conv_95_output_0 0=64 1=3 4=1 5=1 6=110592
Eltwise          /Add_24                  2 1 /Conv_95_output_0 /Add_23_output_0_splitncnn_1 /Add_24_output_0 0=1 -23301=2,2.000000e-01,1.000000e+00
Split            splitncnn_76             1 6 /Add_24_output_0 /Add_24_output_0_splitncnn_0 /Add_24_output_0_splitncnn_1 /Add_24_output_0_splitncnn_2 /Add_24_output_0_splitncnn_3 /Add_24_output_0_splitncnn_4 /Add_24_output_0_splitncnn_5
Convolution      /Conv_96                 1 1 /Add_24_output_0_splitncnn_5 /LeakyRelu_76_output_0 0=32 1=3 4=1 5=1 6=18432 9=2 -23310=1,2.000000e-01
Split            splitncnn_77             1 4 /LeakyRelu_76_output_0 /LeakyRelu_76_output_0_splitncnn_0 /LeakyRelu_76_output_0_splitncnn_1 /LeakyRelu_76_output_0_splitncnn_2 /LeakyRelu_76_output_0_splitncnn_3
Concat           /Concat_76               2 1 /Add_24_output_0_splitncnn_4 /LeakyRelu_76_output_0_splitncnn_3 /Concat_76_output_0
Convolution      /Conv_97                 1 1 /Concat_76_output_0 /LeakyRelu_77_output_0 0=32 1=3 4=1 5=1 6=27648 9=2 -23310=1,2.000000e-01
Split            splitncnn_78             1 3 /LeakyRelu_77_output_0 /LeakyRelu_77_output_0_splitncnn_0 /LeakyRelu_77_output_0_splitncnn_1 /LeakyRelu_77_output_0_splitncnn_2
Concat           /Concat_77               3 1 /Add_24_output_0_splitncnn_3 /LeakyRelu_76_output_0_splitncnn_2 /LeakyRelu_77_output_0_splitncnn_2 /Concat_77_output_0
Convolution      /Conv_98                 1 1 /Concat_77_output_0 /LeakyRelu_78_output_0 0=32 1=3 4=1 5=1 6=36864 9=2 -23310=1,2.000000e-01
Split            splitncnn_79             1 2 /LeakyRelu_78_output_0 /LeakyRelu_78_output_0_splitncnn_0 /LeakyRelu_78_output_0_splitncnn_1
Concat           /Concat_78               4 1 /Add_24_output_0_splitncnn_2 /LeakyRelu_76_output_0_splitncnn_1 /LeakyRelu_77_output_0_splitncnn_1 /LeakyRelu_78_output_0_splitncnn_1 /Concat_78_output_0
Convolution      /Conv_99                 1 1 /Concat_78_output_0 /LeakyRelu_79_output_0 0=32 1=3 4=1 5=1 6=46080 9=2 -23310=1,2.000000e-01
Concat           /Concat_79               5 1 /Add_24_output_0_splitncnn_1 /LeakyRelu_76_output_0_splitncnn_0 /LeakyRelu_77_output_0_splitncnn_0 /LeakyRelu_78_output_0_splitncnn_0 /LeakyRelu_79_output_0 /Concat_79_output_0
Convolution      /Conv_100                1 1 /Concat_79_output_0 /Conv_100_output_0 0=64 1=3 4=1 5=1 6=110592
Eltwise          /Add_25                  2 1 /Conv_100_output_0 /Add_24_output_0_splitncnn_0 /Add_25_output_0 0=1 -23301=2,2.000000e-01,1.000000e+00
Split            splitncnn_80             1 6 /Add_25_output_0 /Add_25_output_0_splitncnn_0 /Add_25_output_0_splitncnn_1 /Add_25_output_0_splitncnn_2 /Add_25_output_0_splitncnn_3 /Add_25_output_0_splitncnn_4 /Add_25_output_0_splitncnn_5
Convolution      /Conv_101                1 1 /Add_25_output_0_splitncnn_5 /LeakyRelu_80_output_0 0=32 1=3 4=1 5=1 6=18432 9=2 -23310=1,2.000000e-01
Split            splitncnn_81             1 4 /LeakyRelu_80_output_0 /LeakyRelu_80_output_0_splitncnn_0 /LeakyRelu_80_output_0_splitncnn_1 /LeakyRelu_80_output_0_splitncnn_2 /LeakyRelu_80_output_0_splitncnn_3
Concat           /Concat_80               2 1 /Add_25_output_0_splitncnn_4 /LeakyRelu_80_output_0_splitncnn_3 /Concat_80_output_0
Convolution      /Conv_102                1 1 /Concat_80_output_0 /LeakyRelu_81_output_0 0=32 1=3 4=1 5=1 6=27648 9=2 -23310=1,2.000000e-01
Split            splitncnn_82             1 3 /LeakyRelu_81_output_0 /LeakyRelu_81_output_0_splitncnn_0 /LeakyRelu_81_output_0_splitncnn_1 /LeakyRelu_81_output_0_splitncnn_2
Concat           /Concat_81               3 1 /Add_25_output_0_splitncnn_3 /LeakyRelu_80_output_0_splitncnn_2 /LeakyRelu_81_output_0_splitncnn_2 /Concat_81_output_0
Convolution      /Conv_103                1 1 /Concat_81_output_0 /LeakyRelu_82_output_0 0=32 1=3 4=1 5=1 6=36864 9=2 -23310=1,2.000000e-01
Split            splitncnn_83             1 2 /LeakyRelu_82_output_0 /LeakyRelu_82_output_0_splitncnn_0 /LeakyRelu_82_output_0_splitncnn_1
Concat           /Concat_82               4 1 /Add_25_output_0_splitncnn_2 /LeakyRelu_80_output_0_splitncnn_1 /LeakyRelu_81_output_0_splitncnn_1 /LeakyRelu_82_output_0_splitncnn_1 /Concat_82_output_0
Convolution      /Conv_104                1 1 /Concat_82_output_0 /LeakyRelu_83_output_0 0=32 1=3 4=1 5=1 6=46080 9=2 -23310=1,2.000000e-01
Concat           /Concat_83               5 1 /Add_25_output_0_splitncnn_1 /LeakyRelu_80_output_0_splitncnn_0 /LeakyRelu_81_output_0_splitncnn_0 /LeakyRelu_82_output_0_splitncnn_0 /LeakyRelu_83_output_0 /Concat_83_output_0
Convolution      /Conv_105                1 1 /Concat_83_output_0 /Conv_105_output_0 0=64 1=3 4=1 5=1 6=110592
Eltwise          /Add_26                  2 1 /Conv_105_output_0 /Add_25_output_0_splitncnn_0 /Add_26_output_0 0=1 -23301=2,2.000000e-01,1.000000e+00
Eltwise          /Add_27                  2 1 /Add_26_output_0 /Add_23_output_0_splitncnn_0 /Add_27_output_0 0=1 -23301=2,2.000000e-01,1.000000e+00
Split            splitncnn_84             1 7 /Add_27_output_0 /Add_27_output_0_splitncnn_0 /Add_27_output_0_splitncnn_1 /Add_27_output_0_splitncnn_2 /Add_27_output_0_splitncnn_3 /Add_27_output_0_splitncnn_4 /Add_27_output_0_splitncnn_5 /Add_27_output_0_splitncnn_6
Convolution      /Conv_106                1 1 /Add_27_output_0_splitncnn_6 /LeakyRelu_84_output_0 0=32 1=3 4=1 5=1 6=18432 9=2 -23310=1,2.000000e-01
Split            splitncnn_85             1 4 /LeakyRelu_84_output_0 /LeakyRelu_84_output_0_splitncnn_0 /LeakyRelu_84_output_0_splitncnn_1 /LeakyRelu_84_output_0_splitncnn_2 /LeakyRelu_84_output_0_splitncnn_3
Concat           /Concat_84               2 1 /Add_27_output_0_splitncnn_5 /LeakyRelu_84_output_0_splitncnn_3 /Concat_84_output_0
Convolution      /Conv_107                1 1 /Concat_84_output_0 /LeakyRelu_85_output_0 0=32 1=3 4=1 5=1 6=27648 9=2 -23310=1,2.000000e-01
Split            splitncnn_86             1 3 /LeakyRelu_85_output_0 /LeakyRelu_85_output_0_splitncnn_0 /LeakyRelu_85_output_0_splitncnn_1 /LeakyRelu_85_output_0_splitncnn_2
Concat           /Concat_85               3 1 /Add_27_output_0_splitncnn_4 /LeakyRelu_84_output_0_splitncnn_2 /LeakyRelu_85_output_0_splitncnn_2 /Concat_85_output_0
Convolution      /Conv_108                1 1 /Concat_85_output_0 /LeakyRelu_86_output_0 0=32 1=3 4=1 5=1 6=36864 9=2 -23310=1,2.000000e-01
Split            splitncnn_87             1 2 /LeakyRelu_86_output_0 /LeakyRelu_86_output_0_splitncnn_0 /LeakyRelu_86_output_0_splitncnn_1
Concat           /Concat_86               4 1 /Add_27_output_0_splitncnn_3 /LeakyRelu_84_output_0_splitncnn_1 /LeakyRelu_85_output_0_splitncnn_1 /LeakyRelu_86_output_0_splitncnn_1 /Concat_86_output_0
Convolution      /Conv_109                1 1 /Concat_86_output_0 /LeakyRelu_87_output_0 0=32 1=3 4=1 5=1 6=46080 9=2 -23310=1,2.000000e-01
Concat           /Concat_87               5 1 /Add_27_output_0_splitncnn_2 /LeakyRelu_84_output_0_splitncnn_0 /LeakyRelu_85_output_0_splitncnn_0 /LeakyRelu_86_output_0_splitncnn_0 /LeakyRelu_87_output_0 /Concat_87_output_0
Convolution      /Conv_110                1 1 /Concat_87_output_0 /Conv_110_output_0 0=64 1=3 4=1 5=1 6=110592
Eltwise          /Add_28                  2 1 /Conv_110_output_0 /Add_27_output_0_splitncnn_1 /Add_28_output_0 0=1 -23301=2,2.000000e-01,1.000000e+00
Split            splitncnn_88             1 6 /Add_28_output_0 /Add_28_output_0_splitncnn_0 /Add_28_output_0_splitncnn_1 /Add_28_output_0_splitncnn_2 /Add_28_output_0_splitncnn_3 /Add_28_output_0_splitncnn_4 /Add_28_output_0_splitncnn_5
Convolution      /Conv_111                1 1 /Add_28_output_0_splitncnn_5 /LeakyRelu_88_output_0 0=32 1=3 4=1 5=1 6=18432 9=2 -23310=1,2.000000e-01
Split            splitncnn_89             1 4 /LeakyRelu_88_output_0 /LeakyRelu_88_output_0_splitncnn_0 /LeakyRelu_88_output_0_splitncnn_1 /LeakyRelu_88_output_0_splitncnn_2 /LeakyRelu_88_output_0_splitncnn_3
Concat           /Concat_88               2 1 /Add_28_output_0_splitncnn_4 /LeakyRelu_88_output_0_splitncnn_3 /Concat_88_output_0
Convolution      /Conv_112                1 1 /Concat_88_output_0 /LeakyRelu_89_output_0 0=32 1=3 4=1 5=1 6=27648 9=2 -23310=1,2.000000e-01
Split            splitncnn_90             1 3 /LeakyRelu_89_output_0 /LeakyRelu_89_output_0_splitncnn_0 /LeakyRelu_89_output_0_splitncnn_1 /LeakyRelu_89_output_0_splitncnn_2
Concat           /Concat_89               3 1 /Add_28_output_0_splitncnn_3 /LeakyRelu_88_output_0_splitncnn_2 /LeakyRelu_89_output_0_splitncnn_2 /Concat_89_output_0
Convolution      /Conv_113                1 1 /Concat_89_output_0 /LeakyRelu_90_output_0 0=32 1=3 4=1 5=1 6=36864 9=2 -23310=1,2.000000e-01
Split            splitncnn_91             1 2 /LeakyRelu_90_output_0 /LeakyRelu_90_output_0_splitncnn_0 /LeakyRelu_90_output_0_splitncnn_1
Concat           /Concat_90               4 1 /Add_28_output_0_splitncnn_2 /LeakyRelu_88_output_0_splitncnn_1 /LeakyRelu_89_output_0_splitncnn_1 /LeakyRelu_90_output_0_splitncnn_1 /Concat_90_output_0
Convolution      /Conv_114                1 1 /Concat_90_output_0 /LeakyRelu_91_output_0 0=32 1=3 4=1 5=1 6=46080 9=2 -23310=1,2.000000e-01
Concat           /Concat_91               5 1 /Add_28_output_0_splitncnn_1 /LeakyRelu_88_output_0_splitncnn_0 /LeakyRelu_89_output_0_splitncnn_0 /LeakyRelu_90_output_0_splitncnn_0 /LeakyRelu_91_output_0 /Concat_91_output_0
Convolution      /Conv_115                1 1 /Concat_91_output_0 /Conv_115_output_0 0=64 1=3 4=1 5=1 6=110592
Eltwise          /Add_29                  2 1 /Conv_115_output_0 /Add_28_output_0_splitncnn_0 /Add_29_output_0 0=1 -23301=2,2.000000e-01,1.000000e+00
Split            splitncnn_92             1 6 /Add_29_output_0 /Add_29_output_0_splitncnn_0 /Add_29_output_0_splitncnn_1 /Add_29_output_0_splitncnn_2 /Add_29_output_0_splitncnn_3 /Add_29_output_0_splitncnn_4 /Add_29_output_0_splitncnn_5
Convolution      /Conv_116                1 1 /Add_29_output_0_splitncnn_5 /LeakyRelu_92_output_0 0=32 1=3 4=1 5=1 6=18432 9=2 -23310=1,2.000000e-01
Split            splitncnn_93             1 4 /LeakyRelu_92_output_0 /LeakyRelu_92_output_0_splitncnn_0 /LeakyRelu_92_output_0_splitncnn_1 /LeakyRelu_92_output_0_splitncnn_2 /LeakyRelu_92_output_0_splitncnn_3
Concat           /Concat_92               2 1 /Add_29_output_0_splitncnn_4 /LeakyRelu_92_output_0_splitncnn_3 /Concat_92_output_0
Convolution      /Conv_117                1 1 /Concat_92_output_0 /LeakyRelu_93_output_0 0=32 1=3 4=1 5=1 6=27648 9=2 -23310=1,2.000000e-01
Split            splitncnn_94             1 3 /LeakyRelu_93_output_0 /LeakyRelu_93_output_0_splitncnn_0 /LeakyRelu_93_output_0_splitncnn_1 /LeakyRelu_93_output_0_splitncnn_2
Concat           /Concat_93               3 1 /Add_29_output_0_splitncnn_3 /LeakyRelu_92_output_0_splitncnn_2 /LeakyRelu_93_output_0_splitncnn_2 /Concat_93_output_0
Convolution      /Conv_118                1 1 /Concat_93_output_0 /LeakyRelu_94_output_0 0=32 1=3 4=1 5=1 6=36864 9=2 -23310=1,2.000000e-01
Split            splitncnn_95             1 2 /LeakyRelu_94_output_0 /LeakyRelu_94_output_0_splitncnn_0 /LeakyRelu_94_output_0_splitncnn_1
Concat           /Concat_94               4 1 /Add_29_output_0_splitncnn_2 /LeakyRelu_92_output_0_splitncnn_1 /LeakyRelu_93_output_0_splitncnn_1 /LeakyRelu_94_output_0_splitncnn_1 /Concat_94_output_0
Convolution      /Conv_119                1 1 /Concat_94_output_0 /LeakyRelu_95_output_0 0=32 1=3 4=1 5=1 6=46080 9=2 -23310=1,2.000000e-01
Concat           /Concat_95               5 1 /Add_29_output_0_splitncnn_1 /LeakyRelu_92_output_0_splitncnn_0 /LeakyRelu_93_output_0_splitncnn_0 /LeakyRelu_94_output_0_splitncnn_0 /LeakyRelu_95_output_0 /Concat_95_output_0
Convolution      /Conv_120                1 1 /Concat_95_output_0 /Conv_120_output_0 0=64 1=3 4=1 5=1 6=110592
Eltwise          /Add_30                  2 1 /Conv_120_output_0 /Add_29_output_0_splitncnn_0 /Add_30_output_0 0=1 -23301=2,2.000000e-01,1.000000e+00
Eltwise          /Add_31                  2 1 /Add_30_output_0 /Add_27_output_0_splitncnn_0 /Add_31_output_0 0=1 -23301=2,2.000000e-01,1.000000e+00
Split            splitncnn_96             1 7 /Add_31_output_0 /Add_31_output_0_splitncnn_0 /Add_31_output_0_splitncnn_1 /Add_31_output_0_splitncnn_2 /Add_31_output_0_splitncnn_3 /Add_31_output_0_splitncnn_4 /Add_31_output_0_splitncnn_5 /Add_31_output_0_splitncnn_6
Convolution      /Conv_121                1 1 /Add_31_output_0_splitncnn_6 /LeakyRelu_96_output_0 0=32 1=3 4=1 5=1 6=18432 9=2 -23310=1,2.000000e-01
Split            splitncnn_97             1 4 /LeakyRelu_96_output_0 /LeakyRelu_96_output_0_splitncnn_0 /LeakyRelu_96_output_0_splitncnn_1 /LeakyRelu_96_output_0_splitncnn_2 /LeakyRelu_96_output_0_splitncnn_3
Concat           /Concat_96               2 1 /Add_31_output_0_splitncnn_5 /LeakyRelu_96_output_0_splitncnn_3 /Concat_96_output_0
Convolution      /Conv_122                1 1 /Concat_96_output_0 /LeakyRelu_97_output_0 0=32 1=3 4=1 5=1 6=27648 9=2 -23310=1,2.000000e-01
Split            splitncnn_98             1 3 /LeakyRelu_97_output_0 /LeakyRelu_97_output_0_splitncnn_0 /LeakyRelu_97_output_0_splitncnn_1 /LeakyRelu_97_output_0_splitncnn_2
Concat           /Concat_97               3 1 /Add_31_output_0_splitncnn_4 /LeakyRelu_96_output_0_splitncnn_2 /LeakyRelu_97_output_0_splitncnn_2 /Concat_97_output_0
Convolution      /Conv_123                1 1 /Concat_97_output_0 /LeakyRelu_98_output_0 0=32 1=3 4=1 5=1 6=36864 9=2 -23310=1,2.000000e-01
Split            splitncnn_99             1 2 /LeakyRelu_98_output_0 /LeakyRelu_98_output_0_splitncnn_0 /LeakyRelu_98_output_0_splitncnn_1
Concat           /Concat_98               4 1 /Add_31_output_0_splitncnn_3 /LeakyRelu_96_output_0_splitncnn_1 /LeakyRelu_97_output_0_splitncnn_1 /LeakyRelu_98_output_0_splitncnn_1 /Concat_98_output_0
Convolution      /Conv_124                1 1 /Concat_98_output_0 /LeakyRelu_99_output_0 0=32 1=3 4=1 5=1 6=46080 9=2 -23310=1,2.000000e-01
Concat           /Concat_99               5 1 /Add_31_output_0_splitncnn_2 /LeakyRelu_96_output_0_splitncnn_0 /LeakyRelu_97_output_0_splitncnn_0 /LeakyRelu_98_output_0_splitncnn_0 /LeakyRelu_99_output_0 /Concat_99_output_0
Convolution      /Conv_125                1 1 /Concat_99_output_0 /Conv_125_output_0 0=64 1=3 4=1 5=1 6=110592
Eltwise          /Add_32                  2 1 /Conv_125_output_0 /Add_31_output_0_splitncnn_1 /Add_32_output_0 0=1 -23301=2,2.000000e-01,1.000000e+00
Split            splitncnn_100            1 6 /Add_32_output_0 /Add_32_output_0_splitncnn_0 /Add_32_output_0_splitncnn_1 /Add_32_output_0_splitncnn_2 /Add_32_output_0_splitncnn_3 /Add_32_output_0_splitncnn_4 /Add_32_output_0_splitncnn_5
Convolution      /Conv_126                1 1 /Add_32_output_0_splitncnn_5 /LeakyRelu_100_output_0 0=32 1=3 4=1 5=1 6=18432 9=2 -23310=1,2.000000e-01
Split            splitncnn_101            1 4 /LeakyRelu_100_output_0 /LeakyRelu_100_output_0_splitncnn_0 /LeakyRelu_100_output_0_splitncnn_1 /LeakyRelu_100_output_0_splitncnn_2 /LeakyRelu_100_output_0_splitncnn_3
Concat           /Concat_100              2 1 /Add_32_output_0_splitncnn_4 /LeakyRelu_100_output_0_splitncnn_3 /Concat_100_output_0
Convolution      /Conv_127                1 1 /Concat_100_output_0 /LeakyRelu_101_output_0 0=32 1=3 4=1 5=1 6=27648 9=2 -23310=1,2.000000e-01
Split            splitncnn_102            1 3 /LeakyRelu_101_output_0 /LeakyRelu_101_output_0_splitncnn_0 /LeakyRelu_101_output_0_splitncnn_1 /LeakyRelu_101_output_0_splitncnn_2
Concat           /Concat_101              3 1 /Add_32_output_0_splitncnn_3 /LeakyRelu_100_output_0_splitncnn_2 /LeakyRelu_101_output_0_splitncnn_2 /Concat_101_output_0
Convolution      /Conv_128                1 1 /Concat_101_output_0 /LeakyRelu_102_output_0 0=32 1=3 4=1 5=1 6=36864 9=2 -23310=1,2.000000e-01
Split            splitncnn_103            1 2 /LeakyRelu_102_output_0 /LeakyRelu_102_output_0_splitncnn_0 /LeakyRelu_102_output_0_splitncnn_1
Concat           /Concat_102              4 1 /Add_32_output_0_splitncnn_2 /LeakyRelu_100_output_0_splitncnn_1 /LeakyRelu_101_output_0_splitncnn_1 /LeakyRelu_102_output_0_splitncnn_1 /Concat_102_output_0
Convolution      /Conv_129                1 1 /Concat_102_output_0 /LeakyRelu_103_output_0 0=32 1=3 4=1 5=1 6=46080 9=2 -23310=1,2.000000e-01
Concat           /Concat_103              5 1 /Add_32_output_0_splitncnn_1 /LeakyRelu_100_output_0_splitncnn_0 /LeakyRelu_101_output_0_splitncnn_0 /LeakyRelu_102_output_0_splitncnn_0 /LeakyRelu_103_output_0 /Concat_103_output_0
Convolution      /Conv_130                1 1 /Concat_103_output_0 /Conv_130_output_0 0=64 1=3 4=1 5=1 6=110592
Eltwise          /Add_33                  2 1 /Conv_130_output_0 /Add_32_output_0_splitncnn_0 /Add_33_output_0 0=1 -23301=2,2.000000e-01,1.000000e+00
Split            splitncnn_104            1 6 /Add_33_output_0 /Add_33_output_0_splitncnn_0 /Add_33_output_0_splitncnn_1 /Add_33_output_0_splitncnn_2 /Add_33_output_0_splitncnn_3 /Add_33_output_0_splitncnn_4 /Add_33_output_0_splitncnn_5
Convolution      /Conv_131                1 1 /Add_33_output_0_splitncnn_5 /LeakyRelu_104_output_0 0=32 1=3 4=1 5=1 6=18432 9=2 -23310=1,2.000000e-01
Split            splitncnn_105            1 4 /LeakyRelu_104_output_0 /LeakyRelu_104_output_0_splitncnn_0 /LeakyRelu_104_output_0_splitncnn_1 /LeakyRelu_104_output_0_splitncnn_2 /LeakyRelu_104_output_0_splitncnn_3
Concat           /Concat_104              2 1 /Add_33_output_0_splitncnn_4 /LeakyRelu_104_output_0_splitncnn_3 /Concat_104_output_0
Convolution      /Conv_132                1 1 /Concat_104_output_0 /LeakyRelu_105_output_0 0=32 1=3 4=1 5=1 6=27648 9=2 -23310=1,2.000000e-01
Split            splitncnn_106            1 3 /LeakyRelu_105_output_0 /LeakyRelu_105_output_0_splitncnn_0 /LeakyRelu_105_output_0_splitncnn_1 /LeakyRelu_105_output_0_splitncnn_2
Concat           /Concat_105              3 1 /Add_33_output_0_splitncnn_3 /LeakyRelu_104_output_0_splitncnn_2 /LeakyRelu_105_output_0_splitncnn_2 /Concat_105_output_0
Convolution      /Conv_133                1 1 /Concat_105_output_0 /LeakyRelu_106_output_0 0=32 1=3 4=1 5=1 6=36864 9=2 -23310=1,2.000000e-01
Split            splitncnn_107            1 2 /LeakyRelu_106_output_0 /LeakyRelu_106_output_0_splitncnn_0 /LeakyRelu_106_output_0_splitncnn_1
Concat           /Concat_106              4 1 /Add_33_output_0_splitncnn_2 /LeakyRelu_104_output_0_splitncnn_1 /LeakyRelu_105_output_0_splitncnn_1 /LeakyRelu_106_output_0_splitncnn_1 /Concat_106_output_0
Convolution      /Conv_134                1 1 /Concat_106_output_0 /LeakyRelu_107_output_0 0=32 1=3 4=1 5=1 6=46080 9=2 -23310=1,2.000000e-01
Concat           /Concat_107              5 1 /Add_33_output_0_splitncnn_1 /LeakyRelu_104_output_0_splitncnn_0 /LeakyRelu_105_output_0_splitncnn_0 /LeakyRelu_106_output_0_splitncnn_0 /LeakyRelu_107_output_0 /Concat_107_output_0
Convolution      /Conv_135                1 1 /Concat_107_output_0 /Conv_135_output_0 0=64 1=3 4=1 5=1 6=110592
Eltwise          /Add_34                  2 1 /Conv_135_output_0 /Add_33_output_0_splitncnn_0 /Add_34_output_0 0=1 -23301=2,2.000000e-01,1.000000e+00
Eltwise          /Add_35                  2 1 /Add_34_output_0 /Add_31_output_0_splitncnn_0 /Add_35_output_0 0=1 -23301=2,2.000000e-01,1.000000e+00
Split            splitncnn_108            1 7 /Add_35_output_0 /Add_35_output_0_splitncnn_0 /Add_35_output_0_splitncnn_1 /Add_35_output_0_splitncnn_2 /Add_35_output_0_splitncnn_3 /Add_35_output_0_splitncnn_4 /Add_35_output_0_splitncnn_5 /Add_35_output_0_splitncnn_6
Convolution      /Conv_136                1 1 /Add_35_output_0_splitncnn_6 /LeakyRelu_108_output_0 0=32 1=3 4=1 5=1 6=18432 9=2 -23310=1,2.000000e-01
Split            splitncnn_109            1 4 /LeakyRelu_108_output_0 /LeakyRelu_108_output_0_splitncnn_0 /LeakyRelu_108_output_0_splitncnn_1 /LeakyRelu_108_output_0_splitncnn_2 /LeakyRelu_108_output_0_splitncnn_3
Concat           /Concat_108              2 1 /Add_35_output_0_splitncnn_5 /LeakyRelu_108_output_0_splitncnn_3 /Concat_108_output_0
Convolution      /Conv_137                1 1 /Concat_108_output_0 /LeakyRelu_109_output_0 0=32 1=3 4=1 5=1 6=27648 9=2 -23310=1,2.000000e-01
Split            splitncnn_110            1 3 /LeakyRelu_109_output_0 /LeakyRelu_109_output_0_splitncnn_0 /LeakyRelu_109_output_0_splitncnn_1 /LeakyRelu_109_output_0_splitncnn_2
Concat           /Concat_109              3 1 /Add_35_output_0_splitncnn_4 /LeakyRelu_108_output_0_splitncnn_2 /LeakyRelu_109_output_0_splitncnn_2 /Concat_109_output_0
Convolution      /Conv_138                1 1 /Concat_109_output_0 /LeakyRelu_110_output_0 0=32 1=3 4=1 5=1 6=36864 9=2 -23310=1,2.000000e-01
Split            splitncnn_111            1 2 /LeakyRelu_110_output_0 /LeakyRelu_110_output_0_splitncnn_0 /LeakyRelu_110_output_0_splitncnn_1
Concat           /Concat_110              4 1 /Add_35_output_0_splitncnn_3 /LeakyRelu_108_output_0_splitncnn_1 /LeakyRelu_109_output_0_splitncnn_1 /LeakyRelu_110_output_0_splitncnn_1 /Concat_110_output_0
Convolution      /Conv_139                1 1 /Concat_110_output_0 /LeakyRelu_111_output_0 0=32 1=3 4=1 5=1 6=46080 9=2 -23310=1,2.000000e-01
Concat           /Concat_111              5 1 /Add_35_output_0_splitncnn_2 /LeakyRelu_108_output_0_splitncnn_0 /LeakyRelu_109_output_0_splitncnn_0 /LeakyRelu_110_output_0_splitncnn_0 /LeakyRelu_111_output_0 /Concat_111_output_0
Convolution      /Conv_140                1 1 /Concat_111_output_0 /Conv_140_output_0 0=64 1=3 4=1 5=1 6=110592
Eltwise          /Add_36                  2 1 /Conv_140_output_0 /Add_35_output_0_splitncnn_1 /Add_36_output_0 0=1 -23301=2,2.000000e-01,1.000000e+00
Split            splitncnn_112            1 6 /Add_36_output_0 /Add_36_output_0_splitncnn_0 /Add_36_output_0_splitncnn_1 /Add_36_output_0_splitncnn_2 /Add_36_output_0_splitncnn_3 /Add_36_output_0_splitncnn_4 /Add_36_output_0_splitncnn_5
Convolution      /Conv_141                1 1 /Add_36_output_0_splitncnn_5 /LeakyRelu_112_output_0 0=32 1=3 4=1 5=1 6=18432 9=2 -23310=1,2.000000e-01
Split            splitncnn_113            1 4 /LeakyRelu_112_output_0 /LeakyRelu_112_output_0_splitncnn_0 /LeakyRelu_112_output_0_splitncnn_1 /LeakyRelu_112_output_0_splitncnn_2 /LeakyRelu_112_output_0_splitncnn_3
Concat           /Concat_112              2 1 /Add_36_output_0_splitncnn_4 /LeakyRelu_112_output_0_splitncnn_3 /Concat_112_output_0
Convolution      /Conv_142                1 1 /Concat_112_output_0 /LeakyRelu_113_output_0 0=32 1=3 4=1 5=1 6=27648 9=2 -23310=1,2.000000e-01
Split            splitncnn_114            1 3 /LeakyRelu_113_output_0 /LeakyRelu_113_output_0_splitncnn_0 /LeakyRelu_113_output_0_splitncnn_1 /LeakyRelu_113_output_0_splitncnn_2
Concat           /Concat_113              3 1 /Add_36_output_0_splitncnn_3 /LeakyRelu_112_output_0_splitncnn_2 /LeakyRelu_113_output_0_splitncnn_2 /Concat_113_output_0
Convolution      /Conv_143                1 1 /Concat_113_output_0 /LeakyRelu_114_output_0 0=32 1=3 4=1 5=1 6=36864 9=2 -23310=1,2.000000e-01
Split            splitncnn_115            1 2 /LeakyRelu_114_output_0 /LeakyRelu_114_output_0_splitncnn_0 /LeakyRelu_114_output_0_splitncnn_1
Concat           /Concat_114              4 1 /Add_36_output_0_splitncnn_2 /LeakyRelu_112_output_0_splitncnn_1 /LeakyRelu_113_output_0_splitncnn_1 /LeakyRelu_114_output_0_splitncnn_1 /Concat_114_output_0
Convolution      /Conv_144                1 1 /Concat_114_output_0 /LeakyRelu_115_output_0 0=32 1=3 4=1 5=1 6=46080 9=2 -23310=1,2.000000e-01
Concat           /Concat_115              5 1 /Add_36_output_0_splitncnn_1 /LeakyRelu_112_output_0_splitncnn_0 /LeakyRelu_113_output_0_splitncnn_0 /LeakyRelu_114_output_0_splitncnn_0 /LeakyRelu_115_output_0 /Concat_115_output_0
Convolution      /Conv_145                1 1 /Concat_115_output_0 /Conv_145_output_0 0=64 1=3 4=1 5=1 6=110592
Eltwise          /Add_37                  2 1 /Conv_145_output_0 /Add_36_output_0_splitncnn_0 /Add_37_output_0 0=1 -23301=2,2.000000e-01,1.000000e+00
Split            splitncnn_116            1 6 /Add_37_output_0 /Add_37_output_0_splitncnn_0 /Add_37_output_0_splitncnn_1 /Add_37_output_0_splitncnn_2 /Add_37_output_0_splitncnn_3 /Add_37_output_0_splitncnn_4 /Add_37_output_0_splitncnn_5
Convolution      /Conv_146                1 1 /Add_37_output_0_splitncnn_5 /LeakyRelu_116_output_0 0=32 1=3 4=1 5=1 6=18432 9=2 -23310=1,2.000000e-01
Split            splitncnn_117            1 4 /LeakyRelu_116_output_0 /LeakyRelu_116_output_0_splitncnn_0 /LeakyRelu_116_output_0_splitncnn_1 /LeakyRelu_116_output_0_splitncnn_2 /LeakyRelu_116_output_0_splitncnn_3
Concat           /Concat_116              2 1 /Add_37_output_0_splitncnn_4 /LeakyRelu_116_output_0_splitncnn_3 /Concat_116_output_0
Convolution      /Conv_147                1 1 /Concat_116_output_0 /LeakyRelu_117_output_0 0=32 1=3 4=1 5=1 6=27648 9=2 -23310=1,2.000000e-01
Split            splitncnn_118            1 3 /LeakyRelu_117_output_0 /LeakyRelu_117_output_0_splitncnn_0 /LeakyRelu_117_output_0_splitncnn_1 /LeakyRelu_117_output_0_splitncnn_2
Concat           /Concat_117              3 1 /Add_37_output_0_splitncnn_3 /LeakyRelu_116_output_0_splitncnn_2 /LeakyRelu_117_output_0_splitncnn_2 /Concat_117_output_0
Convolution      /Conv_148                1 1 /Concat_117_output_0 /LeakyRelu_118_output_0 0=32 1=3 4=1 5=1 6=36864 9=2 -23310=1,2.000000e-01
Split            splitncnn_119            1 2 /LeakyRelu_118_output_0 /LeakyRelu_118_output_0_splitncnn_0 /LeakyRelu_118_output_0_splitncnn_1
Concat           /Concat_118              4 1 /Add_37_output_0_splitncnn_2 /LeakyRelu_116_output_0_splitncnn_1 /LeakyRelu_117_output_0_splitncnn_1 /LeakyRelu_118_output_0_splitncnn_1 /Concat_118_output_0
Convolution      /Conv_149                1 1 /Concat_118_output_0 /LeakyRelu_119_output_0 0=32 1=3 4=1 5=1 6=46080 9=2 -23310=1,2.000000e-01
Concat           /Concat_119              5 1 /Add_37_output_0_splitncnn_1 /LeakyRelu_116_output_0_splitncnn_0 /LeakyRelu_117_output_0_splitncnn_0 /LeakyRelu_118_output_0_splitncnn_0 /LeakyRelu_119_output_0 /Concat_119_output_0
Convolution      /Conv_150                1 1 /Concat_119_output_0 /Conv_150_output_0 0=64 1=3 4=1 5=1 6=110592
Eltwise          /Add_38                  2 1 /Conv_150_output_0 /Add_37_output_0_splitncnn_0 /Add_38_output_0 0=1 -23301=2,2.000000e-01,1.000000e+00
Eltwise          /Add_39                  2 1 /Add_38_output_0 /Add_35_output_0_splitncnn_0 /Add_39_output_0 0=1 -23301=2,2.000000e-01,1.000000e+00
Split            splitncnn_120            1 7 /Add_39_output_0 /Add_39_output_0_splitncnn_0 /Add_39_output_0_splitncnn_1 /Add_39_output_0_splitncnn_2 /Add_39_output_0_splitncnn_3 /Add_39_output_0_splitncnn_4 /Add_39_output_0_splitncnn_5 /Add_39_output_0_splitncnn_6
Convolution      /Conv_151                1 1 /Add_39_output_0_splitncnn_6 /LeakyRelu_120_output_0 0=32 1=3 4=1 5=1 6=18432 9=2 -23310=1,2.000000e-01
Split            splitncnn_121            1 4 /LeakyRelu_120_output_0 /LeakyRelu_120_output_0_splitncnn_0 /LeakyRelu_120_output_0_splitncnn_1 /LeakyRelu_120_output_0_splitncnn_2 /LeakyRelu_120_output_0_splitncnn_3
Concat           /Concat_120              2 1 /Add_39_output_0_splitncnn_5 /LeakyRelu_120_output_0_splitncnn_3 /Concat_120_output_0
Convolution      /Conv_152                1 1 /Concat_120_output_0 /LeakyRelu_121_output_0 0=32 1=3 4=1 5=1 6=27648 9=2 -23310=1,2.000000e-01
Split            splitncnn_122            1 3 /LeakyRelu_121_output_0 /LeakyRelu_121_output_0_splitncnn_0 /LeakyRelu_121_output_0_splitncnn_1 /LeakyRelu_121_output_0_splitncnn_2
Concat           /Concat_121              3 1 /Add_39_output_0_splitncnn_4 /LeakyRelu_120_output_0_splitncnn_2 /LeakyRelu_121_output_0_splitncnn_2 /Concat_121_output_0
Convolution      /Conv_153                1 1 /Concat_121_output_0 /LeakyRelu_122_output_0 0=32 1=3 4=1 5=1 6=36864 9=2 -23310=1,2.000000e-01
Split            splitncnn_123            1 2 /LeakyRelu_122_output_0 /LeakyRelu_122_output_0_splitncnn_0 /LeakyRelu_122_output_0_splitncnn_1
Concat           /Concat_122              4 1 /Add_39_output_0_splitncnn_3 /LeakyRelu_120_output_0_splitncnn_1 /LeakyRelu_121_output_0_splitncnn_1 /LeakyRelu_122_output_0_splitncnn_1 /Concat_122_output_0
Convolution      /Conv_154                1 1 /Concat_122_output_0 /LeakyRelu_123_output_0 0=32 1=3 4=1 5=1 6=46080 9=2 -23310=1,2.000000e-01
Concat           /Concat_123              5 1 /Add_39_output_0_splitncnn_2 /LeakyRelu_120_output_0_splitncnn_0 /LeakyRelu_121_output_0_splitncnn_0 /LeakyRelu_122_output_0_splitncnn_0 /LeakyRelu_123_output_0 /Concat_123_output_0
Convolution      /Conv_155                1 1 /Concat_123_output_0 /Conv_155_output_0 0=64 1=3 4=1 5=1 6=110592
Eltwise          /Add_40                  2 1 /Conv_155_output_0 /Add_39_output_0_splitncnn_1 /Add_40_output_0 0=1 -23301=2,2.000000e-01,1.000000e+00
Split            splitncnn_124            1 6 /Add_40_output_0 /Add_40_output_0_splitncnn_0 /Add_40_output_0_splitncnn_1 /Add_40_output_0_splitncnn_2 /Add_40_output_0_splitncnn_3 /Add_40_output_0_splitncnn_4 /Add_40_output_0_splitncnn_5
Convolution      /Conv_156                1 1 /Add_40_output_0_splitncnn_5 /LeakyRelu_124_output_0 0=32 1=3 4=1 5=1 6=18432 9=2 -23310=1,2.000000e-01
Split            splitncnn_125            1 4 /LeakyRelu_124_output_0 /LeakyRelu_124_output_0_splitncnn_0 /LeakyRelu_124_output_0_splitncnn_1 /LeakyRelu_124_output_0_splitncnn_2 /LeakyRelu_124_output_0_splitncnn_3
Concat           /Concat_124              2 1 /Add_40_output_0_splitncnn_4 /LeakyRelu_124_output_0_splitncnn_3 /Concat_124_output_0
Convolution      /Conv_157                1 1 /Concat_124_output_0 /LeakyRelu_125_output_0 0=32 1=3 4=1 5=1 6=27648 9=2 -23310=1,2.000000e-01
Split            splitncnn_126            1 3 /LeakyRelu_125_output_0 /LeakyRelu_125_output_0_splitncnn_0 /LeakyRelu_125_output_0_splitncnn_1 /LeakyRelu_125_output_0_splitncnn_2
Concat           /Concat_125              3 1 /Add_40_output_0_splitncnn_3 /LeakyRelu_124_output_0_splitncnn_2 /LeakyRelu_125_output_0_splitncnn_2 /Concat_125_output_0
Convolution      /Conv_158                1 1 /Concat_125_output_0 /LeakyRelu_126_output_0 0=32 1=3 4=1 5=1 6=36864 9=2 -23310=1,2.000000e-01
Split            splitncnn_127            1 2 /LeakyRelu_126_output_0 /LeakyRelu_126_output_0_splitncnn_0 /LeakyRelu_126_output_0_splitncnn_1
Concat           /Concat_126              4 1 /Add_40_output_0_splitncnn_2 /LeakyRelu_124_output_0_splitncnn_1 /LeakyRelu_125_output_0_splitncnn_1 /LeakyRelu_126_output_0_splitncnn_1 /Concat_126_output_0
Convolution      /Conv_159                1 1 /Concat_126_output_0 /LeakyRelu_127_output_0 0=32 1=3 4=1 5=1 6=46080 9=2 -23310=1,2.000000e-01
Concat           /Concat_127              5 1 /Add_40_output_0_splitncnn_1 /LeakyRelu_124_output_0_splitncnn_0 /LeakyRelu_125_output_0_splitncnn_0 /LeakyRelu_126_output_0_splitncnn_0 /LeakyRelu_127_output_0 /Concat_127_output_0
Convolution      /Conv_160                1 1 /Concat_127_output_0 /Conv_160_output_0 0=64 1=3 4=1 5=1 6=110592
Eltwise          /Add_41                  2 1 /Conv_160_output_0 /Add_40_output_0_splitncnn_0 /Add_41_output_0 0=1 -23301=2,2.000000e-01,1.000000e+00
Split            splitncnn_128            1 6 /Add_41_output_0 /Add_41_output_0_splitncnn_0 /Add_41_output_0_splitncnn_1 /Add_41_output_0_splitncnn_2 /Add_41_output_0_splitncnn_3 /Add_41_output_0_splitncnn_4 /Add_41_output_0_splitncnn_5
Convolution      /Conv_161                1 1 /Add_41_output_0_splitncnn_5 /LeakyRelu_128_output_0 0=32 1=3 4=1 5=1 6=18432 9=2 -23310=1,2.000000e-01
Split            splitncnn_129            1 4 /LeakyRelu_128_output_0 /LeakyRelu_128_output_0_splitncnn_0 /LeakyRelu_128_output_0_splitncnn_1 /LeakyRelu_128_output_0_splitncnn_2 /LeakyRelu_128_output_0_splitncnn_3
Concat           /Concat_128              2 1 /Add_41_output_0_splitncnn_4 /LeakyRelu_128_output_0_splitncnn_3 /Concat_128_output_0
Convolution      /Conv_162                1 1 /Concat_128_output_0 /LeakyRelu_129_output_0 0=32 1=3 4=1 5=1 6=27648 9=2 -23310=1,2.000000e-01
Split            splitncnn_130            1 3 /LeakyRelu_129_output_0 /LeakyRelu_129_output_0_splitncnn_0 /LeakyRelu_129_output_0_splitncnn_1 /LeakyRelu_129_output_0_splitncnn_2
Concat           /Concat_129              3 1 /Add_41_output_0_splitncnn_3 /LeakyRelu_128_output_0_splitncnn_2 /LeakyRelu_129_output_0_splitncnn_2 /Concat_129_output_0
Convolution      /Conv_163                1 1 /Concat_129_output_0 /LeakyRelu_130_output_0 0=32 1=3 4=1 5=1 6=36864 9=2 -23310=1,2.000000e-01
Split            splitncnn_131            1 2 /LeakyRelu_130_output_0 /LeakyRelu_130_output_0_splitncnn_0 /LeakyRelu_130_output_0_splitncnn_1
Concat           /Concat_130              4 1 /Add_41_output_0_splitncnn_2 /LeakyRelu_128_output_0_splitncnn_1 /LeakyRelu_129_output_0_splitncnn_1 /LeakyRelu_130_output_0_splitncnn_1 /Concat_130_output_0
Convolution      /Conv_164                1 1 /Concat_130_output_0 /LeakyRelu_131_output_0 0=32 1=3 4=1 5=1 6=46080 9=2 -23310=1,2.000000e-01
Concat           /Concat_131              5 1 /Add_41_output_0_splitncnn_1 /LeakyRelu_128_output_0_splitncnn_0 /LeakyRelu_129_output_0_splitncnn_0 /LeakyRelu_130_output_0_splitncnn_0 /LeakyRelu_131_output_0 /Concat_131_output_0
Convolution      /Conv_165                1 1 /Concat_131_output_0 /Conv_165_output_0 0=64 1=3 4=1 5=1 6=110592
Eltwise          /Add_42                  2 1 /Conv_165_output_0 /Add_41_output_0_splitncnn_0 /Add_42_output_0 0=1 -23301=2,2.000000e-01,1.000000e+00
Eltwise          /Add_43                  2 1 /Add_42_output_0 /Add_39_output_0_splitncnn_0 /Add_43_output_0 0=1 -23301=2,2.000000e-01,1.000000e+00
Split            splitncnn_132            1 7 /Add_43_output_0 /Add_43_output_0_splitncnn_0 /Add_43_output_0_splitncnn_1 /Add_43_output_0_splitncnn_2 /Add_43_output_0_splitncnn_3 /Add_43_output_0_splitncnn_4 /Add_43_output_0_splitncnn_5 /Add_43_output_0_splitncnn_6
Convolution      /Conv_166                1 1 /Add_43_output_0_splitncnn_6 /LeakyRelu_132_output_0 0=32 1=3 4=1 5=1 6=18432 9=2 -23310=1,2.000000e-01
Split            splitncnn_133            1 4 /LeakyRelu_132_output_0 /LeakyRelu_132_output_0_splitncnn_0 /LeakyRelu_132_output_0_splitncnn_1 /LeakyRelu_132_output_0_splitncnn_2 /LeakyRelu_132_output_0_splitncnn_3
Concat           /Concat_132              2 1 /Add_43_output_0_splitncnn_5 /LeakyRelu_132_output_0_splitncnn_3 /Concat_132_output_0
Convolution      /Conv_167                1 1 /Concat_132_output_0 /LeakyRelu_133_output_0 0=32 1=3 4=1 5=1 6=27648 9=2 -23310=1,2.000000e-01
Split            splitncnn_134            1 3 /LeakyRelu_133_output_0 /LeakyRelu_133_output_0_splitncnn_0 /LeakyRelu_133_output_0_splitncnn_1 /LeakyRelu_133_output_0_splitncnn_2
Concat           /Concat_133              3 1 /Add_43_output_0_splitncnn_4 /LeakyRelu_132_output_0_splitncnn_2 /LeakyRelu_133_output_0_splitncnn_2 /Concat_133_output_0
Convolution      /Conv_168                1 1 /Concat_133_output_0 /LeakyRelu_134_output_0 0=32 1=3 4=1 5=1 6=36864 9=2 -23310=1,2.000000e-01
Split            splitncnn_135            1 2 /LeakyRelu_134_output_0 /LeakyRelu_134_output_0_splitncnn_0 /LeakyRelu_134_output_0_splitncnn_1
Concat           /Concat_134              4 1 /Add_43_output_0_splitncnn_3 /LeakyRelu_132_output_0_splitncnn_1 /LeakyRelu_133_output_0_splitncnn_1 /LeakyRelu_134_output_0_splitncnn_1 /Concat_134_output_0
Convolution      /Conv_169                1 1 /Concat_134_output_0 /LeakyRelu_135_output_0 0=32 1=3 4=1 5=1 6=46080 9=2 -23310=1,2.000000e-01
Concat           /Concat_135              5 1 /Add_43_output_0_splitncnn_2 /LeakyRelu_132_output_0_splitncnn_0 /LeakyRelu_133_output_0_splitncnn_0 /LeakyRelu_134_output_0_splitncnn_0 /LeakyRelu_135_output_0 /Concat_135_output_0
Convolution      /Conv_170                1 1 /Concat_135_output_0 /Conv_170_output_0 0=64 1=3 4=1 5=1 6=110592
Eltwise          /Add_44                  2 1 /Conv_170_output_0 /Add_43_output_0_splitncnn_1 /Add_44_output_0 0=1 -23301=2,2.000000e-01,1.000000e+00
Split            splitncnn_136            1 6 /Add_44_output_0 /Add_44_output_0_splitncnn_0 /Add_44_output_0_splitncnn_1 /Add_44_output_0_splitncnn_2 /Add_44_output_0_splitncnn_3 /Add_44_output_0_splitncnn_4 /Add_44_output_0_splitncnn_5
Convolution      /Conv_171                1 1 /Add_44_output_0_splitncnn_5 /LeakyRelu_136_output_0 0=32 1=3 4=1 5=1 6=18432 9=2 -23310=1,2.000000e-01
Split            splitncnn_137            1 4 /LeakyRelu_136_output_0 /LeakyRelu_136_output_0_splitncnn_0 /LeakyRelu_136_output_0_splitncnn_1 /LeakyRelu_136_output_0_splitncnn_2 /LeakyRelu_136_output_0_splitncnn_3
Concat           /Concat_136              2 1 /Add_44_output_0_splitncnn_4 /LeakyRelu_136_output_0_splitncnn_3 /Concat_136_output_0
Convolution      /Conv_172                1 1 /Concat_136_output_0 /LeakyRelu_137_output_0 0=32 1=3 4=1 5=1 6=27648 9=2 -23310=1,2.000000e-01
Split            splitncnn_138            1 3 /LeakyRelu_137_output_0 /LeakyRelu_137_output_0_splitncnn_0 /LeakyRelu_137_output_0_splitncnn_1 /LeakyRelu_137_output_0_splitncnn_2
Concat           /Concat_137              3 1 /Add_44_output_0_splitncnn_3 /LeakyRelu_136_output_0_splitncnn_2 /LeakyRelu_137_output_0_splitncnn_2 /Concat_137_output_0
Convolution      /Conv_173                1 1 /Concat_137_output_0 /LeakyRelu_138_output_0 0=32 1=3 4=1 5=1 6=36864 9=2 -23310=1,2.000000e-01
Split            splitncnn_139            1 2 /LeakyRelu_138_output_0 /LeakyRelu_138_output_0_splitncnn_0 /LeakyRelu_138_output_0_splitncnn_1
Concat           /Concat_138              4 1 /Add_44_output_0_splitncnn_2 /LeakyRelu_136_output_0_splitncnn_1 /LeakyRelu_137_output_0_splitncnn_1 /LeakyRelu_138_output_0_splitncnn_1 /Concat_138_output_0
Convolution      /Conv_174                1 1 /Concat_138_output_0 /LeakyRelu_139_output_0 0=32 1=3 4=1 5=1 6=46080 9=2 -23310=1,2.000000e-01
Concat           /Concat_139              5 1 /Add_44_output_0_splitncnn_1 /LeakyRelu_136_output_0_splitncnn_0 /LeakyRelu_137_output_0_splitncnn_0 /LeakyRelu_138_output_0_splitncnn_0 /LeakyRelu_139_output_0 /Concat_139_output_0
Convolution      /Conv_175                1 1 /Concat_139_output_0 /Conv_175_output_0 0=64 1=3 4=1 5=1 6=110592
Eltwise          /Add_45                  2 1 /Conv_175_output_0 /Add_44_output_0_splitncnn_0 /Add_45_output_0 0=1 -23301=2,2.000000e-01,1.000000e+00
Split            splitncnn_140            1 6 /Add_45_output_0 /Add_45_output_0_splitncnn_0 /Add_45_output_0_splitncnn_1 /Add_45_output_0_splitncnn_2 /Add_45_output_0_splitncnn_3 /Add_45_output_0_splitncnn_4 /Add_45_output_0_splitncnn_5
Convolution      /Conv_176                1 1 /Add_45_output_0_splitncnn_5 /LeakyRelu_140_output_0 0=32 1=3 4=1 5=1 6=18432 9=2 -23310=1,2.000000e-01
Split            splitncnn_141            1 4 /LeakyRelu_140_output_0 /LeakyRelu_140_output_0_splitncnn_0 /LeakyRelu_140_output_0_splitncnn_1 /LeakyRelu_140_output_0_splitncnn_2 /LeakyRelu_140_output_0_splitncnn_3
Concat           /Concat_140              2 1 /Add_45_output_0_splitncnn_4 /LeakyRelu_140_output_0_splitncnn_3 /Concat_140_output_0
Convolution      /Conv_177                1 1 /Concat_140_output_0 /LeakyRelu_141_output_0 0=32 1=3 4=1 5=1 6=27648 9=2 -23310=1,2.000000e-01
Split            splitncnn_142            1 3 /LeakyRelu_141_output_0 /LeakyRelu_141_output_0_splitncnn_0 /LeakyRelu_141_output_0_splitncnn_1 /LeakyRelu_141_output_0_splitncnn_2
Concat           /Concat_141              3 1 /Add_45_output_0_splitncnn_3 /LeakyRelu_140_output_0_splitncnn_2 /LeakyRelu_141_output_0_splitncnn_2 /Concat_141_output_0
Convolution      /Conv_178                1 1 /Concat_141_output_0 /LeakyRelu_142_output_0 0=32 1=3 4=1 5=1 6=36864 9=2 -23310=1,2.000000e-01
Split            splitncnn_143            1 2 /LeakyRelu_142_output_0 /LeakyRelu_142_output_0_splitncnn_0 /LeakyRelu_142_output_0_splitncnn_1
Concat           /Concat_142              4 1 /Add_45_output_0_splitncnn_2 /LeakyRelu_140_output_0_splitncnn_1 /LeakyRelu_141_output_0_splitncnn_1 /LeakyRelu_142_output_0_splitncnn_1 /Concat_142_output_0
Convolution      /Conv_179                1 1 /Concat_142_output_0 /LeakyRelu_143_output_0 0=32 1=3 4=1 5=1 6=46080 9=2 -23310=1,2.000000e-01
Concat           /Concat_143              5 1 /Add_45_output_0_splitncnn_1 /LeakyRelu_140_output_0_splitncnn_0 /LeakyRelu_141_output_0_splitncnn_0 /LeakyRelu_142_output_0_splitncnn_0 /LeakyRelu_143_output_0 /Concat_143_output_0
Convolution      /Conv_180                1 1 /Concat_143_output_0 /Conv_180_output_0 0=64 1=3 4=1 5=1 6=110592
Eltwise          /Add_46                  2 1 /Conv_180_output_0 /Add_45_output_0_splitncnn_0 /Add_46_output_0 0=1 -23301=2,2.000000e-01,1.000000e+00
Eltwise          /Add_47                  2 1 /Add_46_output_0 /Add_43_output_0_splitncnn_0 /Add_47_output_0 0=1 -23301=2,2.000000e-01,1.000000e+00
Split            splitncnn_144            1 7 /Add_47_output_0 /Add_47_output_0_splitncnn_0 /Add_47_output_0_splitncnn_1 /Add_47_output_0_splitncnn_2 /Add_47_output_0_splitncnn_3 /Add_47_output_0_splitncnn_4 /Add_47_output_0_splitncnn_5 /Add_47_output_0_splitncnn_6
Convolution      /Conv_181                1 1 /Add_47_output_0_splitncnn_6 /LeakyRelu_144_output_0 0=32 1=3 4=1 5=1 6=18432 9=2 -23310=1,2.000000e-01
Split            splitncnn_145            1 4 /LeakyRelu_144_output_0 /LeakyRelu_144_output_0_splitncnn_0 /LeakyRelu_144_output_0_splitncnn_1 /LeakyRelu_144_output_0_splitncnn_2 /LeakyRelu_144_output_0_splitncnn_3
Concat           /Concat_144              2 1 /Add_47_output_0_splitncnn_5 /LeakyRelu_144_output_0_splitncnn_3 /Concat_144_output_0
Convolution      /Conv_182                1 1 /Concat_144_output_0 /LeakyRelu_145_output_0 0=32 1=3 4=1 5=1 6=27648 9=2 -23310=1,2.000000e-01
Split            splitncnn_146            1 3 /LeakyRelu_145_output_0 /LeakyRelu_145_output_0_splitncnn_0 /LeakyRelu_145_output_0_splitncnn_1 /LeakyRelu_145_output_0_splitncnn_2
Concat           /Concat_145              3 1 /Add_47_output_0_splitncnn_4 /LeakyRelu_144_output_0_splitncnn_2 /LeakyRelu_145_output_0_splitncnn_2 /Concat_145_output_0
Convolution      /Conv_183                1 1 /Concat_145_output_0 /LeakyRelu_146_output_0 0=32 1=3 4=1 5=1 6=36864 9=2 -23310=1,2.000000e-01
Split            splitncnn_147            1 2 /LeakyRelu_146_output_0 /LeakyRelu_146_output_0_splitncnn_0 /LeakyRelu_146_output_0_splitncnn_1
Concat           /Concat_146              4 1 /Add_47_output_0_splitncnn_3 /LeakyRelu_144_output_0_splitncnn_1 /LeakyRelu_145_output_0_splitncnn_1 /LeakyRelu_146_output_0_splitncnn_1 /Concat_146_output_0
Convolution      /Conv_184                1 1 /Concat_146_output_0 /LeakyRelu_147_output_0 0=32 1=3 4=1 5=1 6=46080 9=2 -23310=1,2.000000e-01
Concat           /Concat_147              5 1 /Add_47_output_0_splitncnn_2 /LeakyRelu_144_output_0_splitncnn_0 /LeakyRelu_145_output_0_splitncnn_0 /LeakyRelu_146_output_0_splitncnn_0 /LeakyRelu_147_output_0 /Concat_147_output_0
Convolution      /Conv_185                1 1 /Concat_147_output_0 /Conv_185_output_0 0=64 1=3 4=1 5=1 6=110592
Eltwise          /Add_48                  2 1 /Conv_185_output_0 /Add_47_output_0_splitncnn_1 /Add_48_output_0 0=1 -23301=2,2.000000e-01,1.000000e+00
Split            splitncnn_148            1 6 /Add_48_output_0 /Add_48_output_0_splitncnn_0 /Add_48_output_0_splitncnn_1 /Add_48_output_0_splitncnn_2 /Add_48_output_0_splitncnn_3 /Add_48_output_0_splitncnn_4 /Add_48_output_0_splitncnn_5
Convolution      /Conv_186                1 1 /Add_48_output_0_splitncnn_5 /LeakyRelu_148_output_0 0=32 1=3 4=1 5=1 6=18432 9=2 -23310=1,2.000000e-01
Split            splitncnn_149            1 4 /LeakyRelu_148_output_0 /LeakyRelu_148_output_0_splitncnn_0 /LeakyRelu_148_output_0_splitncnn_1 /LeakyRelu_148_output_0_splitncnn_2 /LeakyRelu_148_output_0_splitncnn_3
Concat           /Concat_148              2 1 /Add_48_output_0_splitncnn_4 /LeakyRelu_148_output_0_splitncnn_3 /Concat_148_output_0
Convolution      /Conv_187                1 1 /Concat_148_output_0 /LeakyRelu_149_output_0 0=32 1=3 4=1 5=1 6=27648 9=2 -23310=1,2.000000e-01
Split            splitncnn_150            1 3 /LeakyRelu_149_output_0 /LeakyRelu_149_output_0_splitncnn_0 /LeakyRelu_149_output_0_splitncnn_1 /LeakyRelu_149_output_0_splitncnn_2
Concat           /Concat_149              3 1 /Add_48_output_0_splitncnn_3 /LeakyRelu_148_output_0_splitncnn_2 /LeakyRelu_149_output_0_splitncnn_2 /Concat_149_output_0
Convolution      /Conv_188                1 1 /Concat_149_output_0 /LeakyRelu_150_output_0 0=32 1=3 4=1 5=1 6=36864 9=2 -23310=1,2.000000e-01
Split            splitncnn_151            1 2 /LeakyRelu_150_output_0 /LeakyRelu_150_output_0_splitncnn_0 /LeakyRelu_150_output_0_splitncnn_1
Concat           /Concat_150              4 1 /Add_48_output_0_splitncnn_2 /LeakyRelu_148_output_0_splitncnn_1 /LeakyRelu_149_output_0_splitncnn_1 /LeakyRelu_150_output_0_splitncnn_1 /Concat_150_output_0
Convolution      /Conv_189                1 1 /Concat_150_output_0 /LeakyRelu_151_output_0 0=32 1=3 4=1 5=1 6=46080 9=2 -23310=1,2.000000e-01
Concat           /Concat_151              5 1 /Add_48_output_0_splitncnn_1 /LeakyRelu_148_output_0_splitncnn_0 /LeakyRelu_149_output_0_splitncnn_0 /LeakyRelu_150_output_0_splitncnn_0 /LeakyRelu_151_output_0 /Concat_151_output_0
Convolution      /Conv_190                1 1 /Concat_151_output_0 /Conv_190_output_0 0=64 1=3 4=1 5=1 6=110592
Eltwise          /Add_49                  2 1 /Conv_190_output_0 /Add_48_output_0_splitncnn_0 /Add_49_output_0 0=1 -23301=2,2.000000e-01,1.000000e+00
Split            splitncnn_152            1 6 /Add_49_output_0 /Add_49_output_0_splitncnn_0 /Add_49_output_0_splitncnn_1 /Add_49_output_0_splitncnn_2 /Add_49_output_0_splitncnn_3 /Add_49_output_0_splitncnn_4 /Add_49_output_0_splitncnn_5
Convolution      /Conv_191                1 1 /Add_49_output_0_splitncnn_5 /LeakyRelu_152_output_0 0=32 1=3 4=1 5=1 6=18432 9=2 -23310=1,2.000000e-01
Split            splitncnn_153            1 4 /LeakyRelu_152_output_0 /LeakyRelu_152_output_0_splitncnn_0 /LeakyRelu_152_output_0_splitncnn_1 /LeakyRelu_152_output_0_splitncnn_2 /LeakyRelu_152_output_0_splitncnn_3
Concat           /Concat_152              2 1 /Add_49_output_0_splitncnn_4 /LeakyRelu_152_output_0_splitncnn_3 /Concat_152_output_0
Convolution      /Conv_192                1 1 /Concat_152_output_0 /LeakyRelu_153_output_0 0=32 1=3 4=1 5=1 6=27648 9=2 -23310=1,2.000000e-01
Split            splitncnn_154            1 3 /LeakyRelu_153_output_0 /LeakyRelu_153_output_0_splitncnn_0 /LeakyRelu_153_output_0_splitncnn_1 /LeakyRelu_153_output_0_splitncnn_2
Concat           /Concat_153              3 1 /Add_49_output_0_splitncnn_3 /LeakyRelu_152_output_0_splitncnn_2 /LeakyRelu_153_output_0_splitncnn_2 /Concat_153_output_0
Convolution      /Conv_193                1 1 /Concat_153_output_0 /LeakyRelu_154_output_0 0=32 1=3 4=1 5=1 6=36864 9=2 -23310=1,2.000000e-01
Split            splitncnn_155            1 2 /LeakyRelu_154_output_0 /LeakyRelu_154_output_0_splitncnn_0 /LeakyRelu_154_output_0_splitncnn_1
Concat           /Concat_154              4 1 /Add_49_output_0_splitncnn_2 /LeakyRelu_152_output_0_splitncnn_1 /LeakyRelu_153_output_0_splitncnn_1 /LeakyRelu_154_output_0_splitncnn_1 /Concat_154_output_0
Convolution      /Conv_194                1 1 /Concat_154_output_0 /LeakyRelu_155_output_0 0=32 1=3 4=1 5=1 6=46080 9=2 -23310=1,2.000000e-01
Concat           /Concat_155              5 1 /Add_49_output_0_splitncnn_1 /LeakyRelu_152_output_0_splitncnn_0 /LeakyRelu_153_output_0_splitncnn_0 /LeakyRelu_154_output_0_splitncnn_0 /LeakyRelu_155_output_0 /Concat_155_output_0
Convolution      /Conv_195                1 1 /Concat_155_output_0 /Conv_195_output_0 0=64 1=3 4=1 5=1 6=110592
Eltwise          /Add_50                  2 1 /Conv_195_output_0 /Add_49_output_0_splitncnn_0 /Add_50_output_0 0=1 -23301=2,2.000000e-01,1.000000e+00
Eltwise          /Add_51                  2 1 /Add_50_output_0 /Add_47_output_0_splitncnn_0 /Add_51_output_0 0=1 -23301=2,2.000000e-01,1.000000e+00
Split            splitncnn_156            1 7 /Add_51_output_0 /Add_51_output_0_splitncnn_0 /Add_51_output_0_splitncnn_1 /Add_51_output_0_splitncnn_2 /Add_51_output_0_splitncnn_3 /Add_51_output_0_splitncnn_4 /Add_51_output_0_splitncnn_5 /Add_51_output_0_splitncnn_6
Convolution      /Conv_196                1 1 /Add_51_output_0_splitncnn_6 /LeakyRelu_156_output_0 0=32 1=3 4=1 5=1 6=18432 9=2 -23310=1,2.000000e-01
Split            splitncnn_157            1 4 /LeakyRelu_156_output_0 /LeakyRelu_156_output_0_splitncnn_0 /LeakyRelu_156_output_0_splitncnn_1 /LeakyRelu_156_output_0_splitncnn_2 /LeakyRelu_156_output_0_splitncnn_3
Concat           /Concat_156              2 1 /Add_51_output_0_splitncnn_5 /LeakyRelu_156_output_0_splitncnn_3 /Concat_156_output_0
Convolution      /Conv_197                1 1 /Concat_156_output_0 /LeakyRelu_157_output_0 0=32 1=3 4=1 5=1 6=27648 9=2 -23310=1,2.000000e-01
Split            splitncnn_158            1 3 /LeakyRelu_157_output_0 /LeakyRelu_157_output_0_splitncnn_0 /LeakyRelu_157_output_0_splitncnn_1 /LeakyRelu_157_output_0_splitncnn_2
Concat           /Concat_157              3 1 /Add_51_output_0_splitncnn_4 /LeakyRelu_156_output_0_splitncnn_2 /LeakyRelu_157_output_0_splitncnn_2 /Concat_157_output_0
Convolution      /Conv_198                1 1 /Concat_157_output_0 /LeakyRelu_158_output_0 0=32 1=3 4=1 5=1 6=36864 9=2 -23310=1,2.000000e-01
Split            splitncnn_159            1 2 /LeakyRelu_158_output_0 /LeakyRelu_158_output_0_splitncnn_0 /LeakyRelu_158_output_0_splitncnn_1
Concat           /Concat_158              4 1 /Add_51_output_0_splitncnn_3 /LeakyRelu_156_output_0_splitncnn_1 /LeakyRelu_157_output_0_splitncnn_1 /LeakyRelu_158_output_0_splitncnn_1 /Concat_158_output_0
Convolution      /Conv_199                1 1 /Concat_158_output_0 /LeakyRelu_159_output_0 0=32 1=3 4=1 5=1 6=46080 9=2 -23310=1,2.000000e-01
Concat           /Concat_159              5 1 /Add_51_output_0_splitncnn_2 /LeakyRelu_156_output_0_splitncnn_0 /LeakyRelu_157_output_0_splitncnn_0 /LeakyRelu_158_output_0_splitncnn_0 /LeakyRelu_159_output_0 /Concat_159_output_0
Convolution      /Conv_200                1 1 /Concat_159_output_0 /Conv_200_output_0 0=64 1=3 4=1 5=1 6=110592
Eltwise          /Add_52                  2 1 /Conv_200_output_0 /Add_51_output_0_splitncnn_1 /Add_52_output_0 0=1 -23301=2,2.000000e-01,1.000000e+00
Split            splitncnn_160            1 6 /Add_52_output_0 /Add_52_output_0_splitncnn_0 /Add_52_output_0_splitncnn_1 /Add_52_output_0_splitncnn_2 /Add_52_output_0_splitncnn_3 /Add_52_output_0_splitncnn_4 /Add_52_output_0_splitncnn_5
Convolution      /Conv_201                1 1 /Add_52_output_0_splitncnn_5 /LeakyRelu_160_output_0 0=32 1=3 4=1 5=1 6=18432 9=2 -23310=1,2.000000e-01
Split            splitncnn_161            1 4 /LeakyRelu_160_output_0 /LeakyRelu_160_output_0_splitncnn_0 /LeakyRelu_160_output_0_splitncnn_1 /LeakyRelu_160_output_0_splitncnn_2 /LeakyRelu_160_output_0_splitncnn_3
Concat           /Concat_160              2 1 /Add_52_output_0_splitncnn_4 /LeakyRelu_160_output_0_splitncnn_3 /Concat_160_output_0
Convolution      /Conv_202                1 1 /Concat_160_output_0 /LeakyRelu_161_output_0 0=32 1=3 4=1 5=1 6=27648 9=2 -23310=1,2.000000e-01
Split            splitncnn_162            1 3 /LeakyRelu_161_output_0 /LeakyRelu_161_output_0_splitncnn_0 /LeakyRelu_161_output_0_splitncnn_1 /LeakyRelu_161_output_0_splitncnn_2
Concat           /Concat_161              3 1 /Add_52_output_0_splitncnn_3 /LeakyRelu_160_output_0_splitncnn_2 /LeakyRelu_161_output_0_splitncnn_2 /Concat_161_output_0
Convolution      /Conv_203                1 1 /Concat_161_output_0 /LeakyRelu_162_output_0 0=32 1=3 4=1 5=1 6=36864 9=2 -23310=1,2.000000e-01
Split            splitncnn_163            1 2 /LeakyRelu_162_output_0 /LeakyRelu_162_output_0_splitncnn_0 /LeakyRelu_162_output_0_splitncnn_1
Concat           /Concat_162              4 1 /Add_52_output_0_splitncnn_2 /LeakyRelu_160_output_0_splitncnn_1 /LeakyRelu_161_output_0_splitncnn_1 /LeakyRelu_162_output_0_splitncnn_1 /Concat_162_output_0
Convolution      /Conv_204                1 1 /Concat_162_output_0 /LeakyRelu_163_output_0 0=32 1=3 4=1 5=1 6=46080 9=2 -23310=1,2.000000e-01
Concat           /Concat_163              5 1 /Add_52_output_0_splitncnn_1 /LeakyRelu_160_output_0_splitncnn_0 /LeakyRelu_161_output_0_splitncnn_0 /LeakyRelu_162_output_0_splitncnn_0 /LeakyRelu_163_output_0 /Concat_163_output_0
Convolution      /Conv_205                1 1 /Concat_163_output_0 /Conv_205_output_0 0=64 1=3 4=1 5=1 6=110592
Eltwise          /Add_53                  2 1 /Conv_205_output_0 /Add_52_output_0_splitncnn_0 /Add_53_output_0 0=1 -23301=2,2.000000e-01,1.000000e+00
Split            splitncnn_164            1 6 /Add_53_output_0 /Add_53_output_0_splitncnn_0 /Add_53_output_0_splitncnn_1 /Add_53_output_0_splitncnn_2 /Add_53_output_0_splitncnn_3 /Add_53_output_0_splitncnn_4 /Add_53_output_0_splitncnn_5
Convolution      /Conv_206                1 1 /Add_53_output_0_splitncnn_5 /LeakyRelu_164_output_0 0=32 1=3 4=1 5=1 6=18432 9=2 -23310=1,2.000000e-01
Split            splitncnn_165            1 4 /LeakyRelu_164_output_0 /LeakyRelu_164_output_0_splitncnn_0 /LeakyRelu_164_output_0_splitncnn_1 /LeakyRelu_164_output_0_splitncnn_2 /LeakyRelu_164_output_0_splitncnn_3
Concat           /Concat_164              2 1 /Add_53_output_0_splitncnn_4 /LeakyRelu_164_output_0_splitncnn_3 /Concat_164_output_0
Convolution      /Conv_207                1 1 /Concat_164_output_0 /LeakyRelu_165_output_0 0=32 1=3 4=1 5=1 6=27648 9=2 -23310=1,2.000000e-01
Split            splitncnn_166            1 3 /LeakyRelu_165_output_0 /LeakyRelu_165_output_0_splitncnn_0 /LeakyRelu_165_output_0_splitncnn_1 /LeakyRelu_165_output_0_splitncnn_2
Concat           /Concat_165              3 1 /Add_53_output_0_splitncnn_3 /LeakyRelu_164_output_0_splitncnn_2 /LeakyRelu_165_output_0_splitncnn_2 /Concat_165_output_0
Convolution      /Conv_208                1 1 /Concat_165_output_0 /LeakyRelu_166_output_0 0=32 1=3 4=1 5=1 6=36864 9=2 -23310=1,2.000000e-01
Split            splitncnn_167            1 2 /LeakyRelu_166_output_0 /LeakyRelu_166_output_0_splitncnn_0 /LeakyRelu_166_output_0_splitncnn_1
Concat           /Concat_166              4 1 /Add_53_output_0_splitncnn_2 /LeakyRelu_164_output_0_splitncnn_1 /LeakyRelu_165_output_0_splitncnn_1 /LeakyRelu_166_output_0_splitncnn_1 /Concat_166_output_0
Convolution      /Conv_209                1 1 /Concat_166_output_0 /LeakyRelu_167_output_0 0=32 1=3 4=1 5=1 6=46080 9=2 -23310=1,2.000000e-01
Concat           /Concat_167              5 1 /Add_53_output_0_splitncnn_1 /LeakyRelu_164_output_0_splitncnn_0 /LeakyRelu_165_output_0_splitncnn_0 /LeakyRelu_166_output_0_splitncnn_0 /LeakyRelu_167_output_0 /Concat_167_output_0
Convolution      /Conv_210                1 1 /Concat_167_output_0 /Conv_210_output_0 0=64 1=3 4=1 5=1 6=110592
Eltwise          /Add_54                  2 1 /Conv_210_output_0 /Add_53_output_0_splitncnn_0 /Add_54_output_0 0=1 -23301=2,2.000000e-01,1.000000e+00
Eltwise          /Add_55                  2 1 /Add_54_output_0 /Add_51_output_0_splitncnn_0 /Add_55_output_0 0=1 -23301=2,2.000000e-01,1.000000e+00
Split            splitncnn_168            1 7 /Add_55_output_0 /Add_55_output_0_splitncnn_0 /Add_55_output_0_splitncnn_1 /Add_55_output_0_splitncnn_2 /Add_55_output_0_splitncnn_3 /Add_55_output_0_splitncnn_4 /Add_55_output_0_splitncnn_5 /Add_55_output_0_splitncnn_6
Convolution      /Conv_211                1 1 /Add_55_output_0_splitncnn_6 /LeakyRelu_168_output_0 0=32 1=3 4=1 5=1 6=18432 9=2 -23310=1,2.000000e-01
Split            splitncnn_169            1 4 /LeakyRelu_168_output_0 /LeakyRelu_168_output_0_splitncnn_0 /LeakyRelu_168_output_0_splitncnn_1 /LeakyRelu_168_output_0_splitncnn_2 /LeakyRelu_168_output_0_splitncnn_3
Concat           /Concat_168              2 1 /Add_55_output_0_splitncnn_5 /LeakyRelu_168_output_0_splitncnn_3 /Concat_168_output_0
Convolution      /Conv_212                1 1 /Concat_168_output_0 /LeakyRelu_169_output_0 0=32 1=3 4=1 5=1 6=27648 9=2 -23310=1,2.000000e-01
Split            splitncnn_170            1 3 /LeakyRelu_169_output_0 /LeakyRelu_169_output_0_splitncnn_0 /LeakyRelu_169_output_0_splitncnn_1 /LeakyRelu_169_output_0_splitncnn_2
Concat           /Concat_169              3 1 /Add_55_output_0_splitncnn_4 /LeakyRelu_168_output_0_splitncnn_2 /LeakyRelu_169_output_0_splitncnn_2 /Concat_169_output_0
Convolution      /Conv_213                1 1 /Concat_169_output_0 /LeakyRelu_170_output_0 0=32 1=3 4=1 5=1 6=36864 9=2 -23310=1,2.000000e-01
Split            splitncnn_171            1 2 /LeakyRelu_170_output_0 /LeakyRelu_170_output_0_splitncnn_0 /LeakyRelu_170_output_0_splitncnn_1
Concat           /Concat_170              4 1 /Add_55_output_0_splitncnn_3 /LeakyRelu_168_output_0_splitncnn_1 /LeakyRelu_169_output_0_splitncnn_1 /LeakyRelu_170_output_0_splitncnn_1 /Concat_170_output_0
Convolution      /Conv_214                1 1 /Concat_170_output_0 /LeakyRelu_171_output_0 0=32 1=3 4=1 5=1 6=46080 9=2 -23310=1,2.000000e-01
Concat           /Concat_171              5 1 /Add_55_output_0_splitncnn_2 /LeakyRelu_168_output_0_splitncnn_0 /LeakyRelu_169_output_0_splitncnn_0 /LeakyRelu_170_output_0_splitncnn_0 /LeakyRelu_171_output_0 /Concat_171_output_0
Convolution      /Conv_215                1 1 /Concat_171_output_0 /Conv_215_output_0 0=64 1=3 4=1 5=1 6=110592
Eltwise          /Add_56                  2 1 /Conv_215_output_0 /Add_55_output_0_splitncnn_1 /Add_56_output_0 0=1 -23301=2,2.000000e-01,1.000000e+00
Split            splitncnn_172            1 6 /Add_56_output_0 /Add_56_output_0_splitncnn_0 /Add_56_output_0_splitncnn_1 /Add_56_output_0_splitncnn_2 /Add_56_output_0_splitncnn_3 /Add_56_output_0_splitncnn_4 /Add_56_output_0_splitncnn_5
Convolution      /Conv_216                1 1 /Add_56_output_0_splitncnn_5 /LeakyRelu_172_output_0 0=32 1=3 4=1 5=1 6=18432 9=2 -23310=1,2.000000e-01
Split            splitncnn_173            1 4 /LeakyRelu_172_output_0 /LeakyRelu_172_output_0_splitncnn_0 /LeakyRelu_172_output_0_splitncnn_1 /LeakyRelu_172_output_0_splitncnn_2 /LeakyRelu_172_output_0_splitncnn_3
Concat           /Concat_172              2 1 /Add_56_output_0_splitncnn_4 /LeakyRelu_172_output_0_splitncnn_3 /Concat_172_output_0
Convolution      /Conv_217                1 1 /Concat_172_output_0 /LeakyRelu_173_output_0 0=32 1=3 4=1 5=1 6=27648 9=2 -23310=1,2.000000e-01
Split            splitncnn_174            1 3 /LeakyRelu_173_output_0 /LeakyRelu_173_output_0_splitncnn_0 /LeakyRelu_173_output_0_splitncnn_1 /LeakyRelu_173_output_0_splitncnn_2
Concat           /Concat_173              3 1 /Add_56_output_0_splitncnn_3 /LeakyRelu_172_output_0_splitncnn_2 /LeakyRelu_173_output_0_splitncnn_2 /Concat_173_output_0
Convolution      /Conv_218                1 1 /Concat_173_output_0 /LeakyRelu_174_output_0 0=32 1=3 4=1 5=1 6=36864 9=2 -23310=1,2.000000e-01
Split            splitncnn_175            1 2 /LeakyRelu_174_output_0 /LeakyRelu_174_output_0_splitncnn_0 /LeakyRelu_174_output_0_splitncnn_1
Concat           /Concat_174              4 1 /Add_56_output_0_splitncnn_2 /LeakyRelu_172_output_0_splitncnn_1 /LeakyRelu_173_output_0_splitncnn_1 /LeakyRelu_174_output_0_splitncnn_1 /Concat_174_output_0
Convolution      /Conv_219                1 1 /Concat_174_output_0 /LeakyRelu_175_output_0 0=32 1=3 4=1 5=1 6=46080 9=2 -23310=1,2.000000e-01
Concat           /Concat_175              5 1 /Add_56_output_0_splitncnn_1 /LeakyRelu_172_output_0_splitncnn_0 /LeakyRelu_173_output_0_splitncnn_0 /LeakyRelu_174_output_0_splitncnn_0 /LeakyRelu_175_output_0 /Concat_175_output_0
Convolution      /Conv_220                1 1 /Concat_175_output_0 /Conv_220_output_0 0=64 1=3 4=1 5=1 6=110592
Eltwise          /Add_57                  2 1 /Conv_220_output_0 /Add_56_output_0_splitncnn_0 /Add_57_output_0 0=1 -23301=2,2.000000e-01,1.000000e+00
Split            splitncnn_176            1 6 /Add_57_output_0 /Add_57_output_0_splitncnn_0 /Add_57_output_0_splitncnn_1 /Add_57_output_0_splitncnn_2 /Add_57_output_0_splitncnn_3 /Add_57_output_0_splitncnn_4 /Add_57_output_0_splitncnn_5
Convolution      /Conv_221                1 1 /Add_57_output_0_splitncnn_5 /LeakyRelu_176_output_0 0=32 1=3 4=1 5=1 6=18432 9=2 -23310=1,2.000000e-01
Split            splitncnn_177            1 4 /LeakyRelu_176_output_0 /LeakyRelu_176_output_0_splitncnn_0 /LeakyRelu_176_output_0_splitncnn_1 /LeakyRelu_176_output_0_splitncnn_2 /LeakyRelu_176_output_0_splitncnn_3
Concat           /Concat_176              2 1 /Add_57_output_0_splitncnn_4 /LeakyRelu_176_output_0_splitncnn_3 /Concat_176_output_0
Convolution      /Conv_222                1 1 /Concat_176_output_0 /LeakyRelu_177_output_0 0=32 1=3 4=1 5=1 6=27648 9=2 -23310=1,2.000000e-01
Split            splitncnn_178            1 3 /LeakyRelu_177_output_0 /LeakyRelu_177_output_0_splitncnn_0 /LeakyRelu_177_output_0_splitncnn_1 /LeakyRelu_177_output_0_splitncnn_2
Concat           /Concat_177              3 1 /Add_57_output_0_splitncnn_3 /LeakyRelu_176_output_0_splitncnn_2 /LeakyRelu_177_output_0_splitncnn_2 /Concat_177_output_0
Convolution      /Conv_223                1 1 /Concat_177_output_0 /LeakyRelu_178_output_0 0=32 1=3 4=1 5=1 6=36864 9=2 -23310=1,2.000000e-01
Split            splitncnn_179            1 2 /LeakyRelu_178_output_0 /LeakyRelu_178_output_0_splitncnn_0 /LeakyRelu_178_output_0_splitncnn_1
Concat           /Concat_178              4 1 /Add_57_output_0_splitncnn_2 /LeakyRelu_176_output_0_splitncnn_1 /LeakyRelu_177_output_0_splitncnn_1 /LeakyRelu_178_output_0_splitncnn_1 /Concat_178_output_0
Convolution      /Conv_224                1 1 /Concat_178_output_0 /LeakyRelu_179_output_0 0=32 1=3 4=1 5=1 6=46080 9=2 -23310=1,2.000000e-01
Concat           /Concat_179              5 1 /Add_57_output_0_splitncnn_1 /LeakyRelu_176_output_0_splitncnn_0 /LeakyRelu_177_output_0_splitncnn_0 /LeakyRelu_178_output_0_splitncnn_0 /LeakyRelu_179_output_0 /Concat_179_output_0
Convolution      /Conv_225                1 1 /Concat_179_output_0 /Conv_225_output_0 0=64 1=3 4=1 5=1 6=110592
Eltwise          /Add_58                  2 1 /Conv_225_output_0 /Add_57_output_0_splitncnn_0 /Add_58_output_0 0=1 -23301=2,2.000000e-01,1.000000e+00
Eltwise          /Add_59                  2 1 /Add_58_output_0 /Add_55_output_0_splitncnn_0 /Add_59_output_0 0=1 -23301=2,2.000000e-01,1.000000e+00
Split            splitncnn_180            1 7 /Add_59_output_0 /Add_59_output_0_splitncnn_0 /Add_59_output_0_splitncnn_1 /Add_59_output_0_splitncnn_2 /Add_59_output_0_splitncnn_3 /Add_59_output_0_splitncnn_4 /Add_59_output_0_splitncnn_5 /Add_59_output_0_splitncnn_6
Convolution      /Conv_226                1 1 /Add_59_output_0_splitncnn_6 /LeakyRelu_180_output_0 0=32 1=3 4=1 5=1 6=18432 9=2 -23310=1,2.000000e-01
Split            splitncnn_181            1 4 /LeakyRelu_180_output_0 /LeakyRelu_180_output_0_splitncnn_0 /LeakyRelu_180_output_0_splitncnn_1 /LeakyRelu_180_output_0_splitncnn_2 /LeakyRelu_180_output_0_splitncnn_3
Concat           /Concat_180              2 1 /Add_59_output_0_splitncnn_5 /LeakyRelu_180_output_0_splitncnn_3 /Concat_180_output_0
Convolution      /Conv_227                1 1 /Concat_180_output_0 /LeakyRelu_181_output_0 0=32 1=3 4=1 5=1 6=27648 9=2 -23310=1,2.000000e-01
Split            splitncnn_182            1 3 /LeakyRelu_181_output_0 /LeakyRelu_181_output_0_splitncnn_0 /LeakyRelu_181_output_0_splitncnn_1 /LeakyRelu_181_output_0_splitncnn_2
Concat           /Concat_181              3 1 /Add_59_output_0_splitncnn_4 /LeakyRelu_180_output_0_splitncnn_2 /LeakyRelu_181_output_0_splitncnn_2 /Concat_181_output_0
Convolution      /Conv_228                1 1 /Concat_181_output_0 /LeakyRelu_182_output_0 0=32 1=3 4=1 5=1 6=36864 9=2 -23310=1,2.000000e-01
Split            splitncnn_183            1 2 /LeakyRelu_182_output_0 /LeakyRelu_182_output_0_splitncnn_0 /LeakyRelu_182_output_0_splitncnn_1
Concat           /Concat_182              4 1 /Add_59_output_0_splitncnn_3 /LeakyRelu_180_output_0_splitncnn_1 /LeakyRelu_181_output_0_splitncnn_1 /LeakyRelu_182_output_0_splitncnn_1 /Concat_182_output_0
Convolution      /Conv_229                1 1 /Concat_182_output_0 /LeakyRelu_183_output_0 0=32 1=3 4=1 5=1 6=46080 9=2 -23310=1,2.000000e-01
Concat           /Concat_183              5 1 /Add_59_output_0_splitncnn_2 /LeakyRelu_180_output_0_splitncnn_0 /LeakyRelu_181_output_0_splitncnn_0 /LeakyRelu_182_output_0_splitncnn_0 /LeakyRelu_183_output_0 /Concat_183_output_0
Convolution      /Conv_230                1 1 /Concat_183_output_0 /Conv_230_output_0 0=64 1=3 4=1 5=1 6=110592
Eltwise          /Add_60                  2 1 /Conv_230_output_0 /Add_59_output_0_splitncnn_1 /Add_60_output_0 0=1 -23301=2,2.000000e-01,1.000000e+00
Split            splitncnn_184            1 6 /Add_60_output_0 /Add_60_output_0_splitncnn_0 /Add_60_output_0_splitncnn_1 /Add_60_output_0_splitncnn_2 /Add_60_output_0_splitncnn_3 /Add_60_output_0_splitncnn_4 /Add_60_output_0_splitncnn_5
Convolution      /Conv_231                1 1 /Add_60_output_0_splitncnn_5 /LeakyRelu_184_output_0 0=32 1=3 4=1 5=1 6=18432 9=2 -23310=1,2.000000e-01
Split            splitncnn_185            1 4 /LeakyRelu_184_output_0 /LeakyRelu_184_output_0_splitncnn_0 /LeakyRelu_184_output_0_splitncnn_1 /LeakyRelu_184_output_0_splitncnn_2 /LeakyRelu_184_output_0_splitncnn_3
Concat           /Concat_184              2 1 /Add_60_output_0_splitncnn_4 /LeakyRelu_184_output_0_splitncnn_3 /Concat_184_output_0
Convolution      /Conv_232                1 1 /Concat_184_output_0 /LeakyRelu_185_output_0 0=32 1=3 4=1 5=1 6=27648 9=2 -23310=1,2.000000e-01
Split            splitncnn_186            1 3 /LeakyRelu_185_output_0 /LeakyRelu_185_output_0_splitncnn_0 /LeakyRelu_185_output_0_splitncnn_1 /LeakyRelu_185_output_0_splitncnn_2
Concat           /Concat_185              3 1 /Add_60_output_0_splitncnn_3 /LeakyRelu_184_output_0_splitncnn_2 /LeakyRelu_185_output_0_splitncnn_2 /Concat_185_output_0
Convolution      /Conv_233                1 1 /Concat_185_output_0 /LeakyRelu_186_output_0 0=32 1=3 4=1 5=1 6=36864 9=2 -23310=1,2.000000e-01
Split            splitncnn_187            1 2 /LeakyRelu_186_output_0 /LeakyRelu_186_output_0_splitncnn_0 /LeakyRelu_186_output_0_splitncnn_1
Concat           /Concat_186              4 1 /Add_60_output_0_splitncnn_2 /LeakyRelu_184_output_0_splitncnn_1 /LeakyRelu_185_output_0_splitncnn_1 /LeakyRelu_186_output_0_splitncnn_1 /Concat_186_output_0
Convolution      /Conv_234                1 1 /Concat_186_output_0 /LeakyRelu_187_output_0 0=32 1=3 4=1 5=1 6=46080 9=2 -23310=1,2.000000e-01
Concat           /Concat_187              5 1 /Add_60_output_0_splitncnn_1 /LeakyRelu_184_output_0_splitncnn_0 /LeakyRelu_185_output_0_splitncnn_0 /LeakyRelu_186_output_0_splitncnn_0 /LeakyRelu_187_output_0 /Concat_187_output_0
Convolution      /Conv_235                1 1 /Concat_187_output_0 /Conv_235_output_0 0=64 1=3 4=1 5=1 6=110592
Eltwise          /Add_61                  2 1 /Conv_235_output_0 /Add_60_output_0_splitncnn_0 /Add_61_output_0 0=1 -23301=2,2.000000e-01,1.000000e+00
Split            splitncnn_188            1 6 /Add_61_output_0 /Add_61_output_0_splitncnn_0 /Add_61_output_0_splitncnn_1 /Add_61_output_0_splitncnn_2 /Add_61_output_0_splitncnn_3 /Add_61_output_0_splitncnn_4 /Add_61_output_0_splitncnn_5
Convolution      /Conv_236                1 1 /Add_61_output_0_splitncnn_5 /LeakyRelu_188_output_0 0=32 1=3 4=1 5=1 6=18432 9=2 -23310=1,2.000000e-01
Split            splitncnn_189            1 4 /LeakyRelu_188_output_0 /LeakyRelu_188_output_0_splitncnn_0 /LeakyRelu_188_output_0_splitncnn_1 /LeakyRelu_188_output_0_splitncnn_2 /LeakyRelu_188_output_0_splitncnn_3
Concat           /Concat_188              2 1 /Add_61_output_0_splitncnn_4 /LeakyRelu_188_output_0_splitncnn_3 /Concat_188_output_0
Convolution      /Conv_237                1 1 /Concat_188_output_0 /LeakyRelu_189_output_0 0=32 1=3 4=1 5=1 6=27648 9=2 -23310=1,2.000000e-01
Split            splitncnn_190            1 3 /LeakyRelu_189_output_0 /LeakyRelu_189_output_0_splitncnn_0 /LeakyRelu_189_output_0_splitncnn_1 /LeakyRelu_189_output_0_splitncnn_2
Concat           /Concat_189              3 1 /Add_61_output_0_splitncnn_3 /LeakyRelu_188_output_0_splitncnn_2 /LeakyRelu_189_output_0_splitncnn_2 /Concat_189_output_0
Convolution      /Conv_238                1 1 /Concat_189_output_0 /LeakyRelu_190_output_0 0=32 1=3 4=1 5=1 6=36864 9=2 -23310=1,2.000000e-01
Split            splitncnn_191            1 2 /LeakyRelu_190_output_0 /LeakyRelu_190_output_0_splitncnn_0 /LeakyRelu_190_output_0_splitncnn_1
Concat           /Concat_190              4 1 /Add_61_output_0_splitncnn_2 /LeakyRelu_188_output_0_splitncnn_1 /LeakyRelu_189_output_0_splitncnn_1 /LeakyRelu_190_output_0_splitncnn_1 /Concat_190_output_0
Convolution      /Conv_239                1 1 /Concat_190_output_0 /LeakyRelu_191_output_0 0=32 1=3 4=1 5=1 6=46080 9=2 -23310=1,2.000000e-01
Concat           /Concat_191              5 1 /Add_61_output_0_splitncnn_1 /LeakyRelu_188_output_0_splitncnn_0 /LeakyRelu_189_output_0_splitncnn_0 /LeakyRelu_190_output_0_splitncnn_0 /LeakyRelu_191_output_0 /Concat_191_output_0
Convolution      /Conv_240                1 1 /Concat_191_output_0 /Conv_240_output_0 0=64 1=3 4=1 5=1 6=110592
Eltwise          /Add_62                  2 1 /Conv_240_output_0 /Add_61_output_0_splitncnn_0 /Add_62_output_0 0=1 -23301=2,2.000000e-01,1.000000e+00
Eltwise          /Add_63                  2 1 /Add_62_output_0 /Add_59_output_0_splitncnn_0 /Add_63_output_0 0=1 -23301=2,2.000000e-01,1.000000e+00
Split            splitncnn_192            1 7 /Add_63_output_0 /Add_63_output_0_splitncnn_0 /Add_63_output_0_splitncnn_1 /Add_63_output_0_splitncnn_2 /Add_63_output_0_splitncnn_3 /Add_63_output_0_splitncnn_4 /Add_63_output_0_splitncnn_5 /Add_63_output_0_splitncnn_6
Convolution      /Conv_241                1 1 /Add_63_output_0_splitncnn_6 /LeakyRelu_192_output_0 0=32 1=3 4=1 5=1 6=18432 9=2 -23310=1,2.000000e-01
Split            splitncnn_193            1 4 /LeakyRelu_192_output_0 /LeakyRelu_192_output_0_splitncnn_0 /LeakyRelu_192_output_0_splitncnn_1 /LeakyRelu_192_output_0_splitncnn_2 /LeakyRelu_192_output_0_splitncnn_3
Concat           /Concat_192              2 1 /Add_63_output_0_splitncnn_5 /LeakyRelu_192_output_0_splitncnn_3 /Concat_192_output_0
Convolution      /Conv_242                1 1 /Concat_192_output_0 /LeakyRelu_193_output_0 0=32 1=3 4=1 5=1 6=27648 9=2 -23310=1,2.000000e-01
Split            splitncnn_194            1 3 /LeakyRelu_193_output_0 /LeakyRelu_193_output_0_splitncnn_0 /LeakyRelu_193_output_0_splitncnn_1 /LeakyRelu_193_output_0_splitncnn_2
Concat           /Concat_193              3 1 /Add_63_output_0_splitncnn_4 /LeakyRelu_192_output_0_splitncnn_2 /LeakyRelu_193_output_0_splitncnn_2 /Concat_193_output_0
Convolution      /Conv_243                1 1 /Concat_193_output_0 /LeakyRelu_194_output_0 0=32 1=3 4=1 5=1 6=36864 9=2 -23310=1,2.000000e-01
Split            splitncnn_195            1 2 /LeakyRelu_194_output_0 /LeakyRelu_194_output_0_splitncnn_0 /LeakyRelu_194_output_0_splitncnn_1
Concat           /Concat_194              4 1 /Add_63_output_0_splitncnn_3 /LeakyRelu_192_output_0_splitncnn_1 /LeakyRelu_193_output_0_splitncnn_1 /LeakyRelu_194_output_0_splitncnn_1 /Concat_194_output_0
Convolution      /Conv_244                1 1 /Concat_194_output_0 /LeakyRelu_195_output_0 0=32 1=3 4=1 5=1 6=46080 9=2 -23310=1,2.000000e-01
Concat           /Concat_195              5 1 /Add_63_output_0_splitncnn_2 /LeakyRelu_192_output_0_splitncnn_0 /LeakyRelu_193_output_0_splitncnn_0 /LeakyRelu_194_output_0_splitncnn_0 /LeakyRelu_195_output_0 /Concat_195_output_0
Convolution      /Conv_245                1 1 /Concat_195_output_0 /Conv_245_output_0 0=64 1=3 4=1 5=1 6=110592
Eltwise          /Add_64                  2 1 /Conv_245_output_0 /Add_63_output_0_splitncnn_1 /Add_64_output_0 0=1 -23301=2,2.000000e-01,1.000000e+00
Split            splitncnn_196            1 6 /Add_64_output_0 /Add_64_output_0_splitncnn_0 /Add_64_output_0_splitncnn_1 /Add_64_output_0_splitncnn_2 /Add_64_output_0_splitncnn_3 /Add_64_output_0_splitncnn_4 /Add_64_output_0_splitncnn_5
Convolution      /Conv_246                1 1 /Add_64_output_0_splitncnn_5 /LeakyRelu_196_output_0 0=32 1=3 4=1 5=1 6=18432 9=2 -23310=1,2.000000e-01
Split            splitncnn_197            1 4 /LeakyRelu_196_output_0 /LeakyRelu_196_output_0_splitncnn_0 /LeakyRelu_196_output_0_splitncnn_1 /LeakyRelu_196_output_0_splitncnn_2 /LeakyRelu_196_output_0_splitncnn_3
Concat           /Concat_196              2 1 /Add_64_output_0_splitncnn_4 /LeakyRelu_196_output_0_splitncnn_3 /Concat_196_output_0
Convolution      /Conv_247                1 1 /Concat_196_output_0 /LeakyRelu_197_output_0 0=32 1=3 4=1 5=1 6=27648 9=2 -23310=1,2.000000e-01
Split            splitncnn_198            1 3 /LeakyRelu_197_output_0 /LeakyRelu_197_output_0_splitncnn_0 /LeakyRelu_197_output_0_splitncnn_1 /LeakyRelu_197_output_0_splitncnn_2
Concat           /Concat_197              3 1 /Add_64_output_0_splitncnn_3 /LeakyRelu_196_output_0_splitncnn_2 /LeakyRelu_197_output_0_splitncnn_2 /Concat_197_output_0
Convolution      /Conv_248                1 1 /Concat_197_output_0 /LeakyRelu_198_output_0 0=32 1=3 4=1 5=1 6=36864 9=2 -23310=1,2.000000e-01
Split            splitncnn_199            1 2 /LeakyRelu_198_output_0 /LeakyRelu_198_output_0_splitncnn_0 /LeakyRelu_198_output_0_splitncnn_1
Concat           /Concat_198              4 1 /Add_64_output_0_splitncnn_2 /LeakyRelu_196_output_0_splitncnn_1 /LeakyRelu_197_output_0_splitncnn_1 /LeakyRelu_198_output_0_splitncnn_1 /Concat_198_output_0
Convolution      /Conv_249                1 1 /Concat_198_output_0 /LeakyRelu_199_output_0 0=32 1=3 4=1 5=1 6=46080 9=2 -23310=1,2.000000e-01
Concat           /Concat_199              5 1 /Add_64_output_0_splitncnn_1 /LeakyRelu_196_output_0_splitncnn_0 /LeakyRelu_197_output_0_splitncnn_0 /LeakyRelu_198_output_0_splitncnn_0 /LeakyRelu_199_output_0 /Concat_199_output_0
Convolution      /Conv_250                1 1 /Concat_199_output_0 /Conv_250_output_0 0=64 1=3 4=1 5=1 6=110592
Eltwise          /Add_65                  2 1 /Conv_250_output_0 /Add_64_output_0_splitncnn_0 /Add_65_output_0 0=1 -23301=2,2.000000e-01,1.000000e+00
Split            splitncnn_200            1 6 /Add_65_output_0 /Add_65_output_0_splitncnn_0 /Add_65_output_0_splitncnn_1 /Add_65_output_0_splitncnn_2 /Add_65_output_0_splitncnn_3 /Add_65_output_0_splitncnn_4 /Add_65_output_0_splitncnn_5
Convolution      /Conv_251                1 1 /Add_65_output_0_splitncnn_5 /LeakyRelu_200_output_0 0=32 1=3 4=1 5=1 6=18432 9=2 -23310=1,2.000000e-01
Split            splitncnn_201            1 4 /LeakyRelu_200_output_0 /LeakyRelu_200_output_0_splitncnn_0 /LeakyRelu_200_output_0_splitncnn_1 /LeakyRelu_200_output_0_splitncnn_2 /LeakyRelu_200_output_0_splitncnn_3
Concat           /Concat_200              2 1 /Add_65_output_0_splitncnn_4 /LeakyRelu_200_output_0_splitncnn_3 /Concat_200_output_0
Convolution      /Conv_252                1 1 /Concat_200_output_0 /LeakyRelu_201_output_0 0=32 1=3 4=1 5=1 6=27648 9=2 -23310=1,2.000000e-01
Split            splitncnn_202            1 3 /LeakyRelu_201_output_0 /LeakyRelu_201_output_0_splitncnn_0 /LeakyRelu_201_output_0_splitncnn_1 /LeakyRelu_201_output_0_splitncnn_2
Concat           /Concat_201              3 1 /Add_65_output_0_splitncnn_3 /LeakyRelu_200_output_0_splitncnn_2 /LeakyRelu_201_output_0_splitncnn_2 /Concat_201_output_0
Convolution      /Conv_253                1 1 /Concat_201_output_0 /LeakyRelu_202_output_0 0=32 1=3 4=1 5=1 6=36864 9=2 -23310=1,2.000000e-01
Split            splitncnn_203            1 2 /LeakyRelu_202_output_0 /LeakyRelu_202_output_0_splitncnn_0 /LeakyRelu_202_output_0_splitncnn_1
Concat           /Concat_202              4 1 /Add_65_output_0_splitncnn_2 /LeakyRelu_200_output_0_splitncnn_1 /LeakyRelu_201_output_0_splitncnn_1 /LeakyRelu_202_output_0_splitncnn_1 /Concat_202_output_0
Convolution      /Conv_254                1 1 /Concat_202_output_0 /LeakyRelu_203_output_0 0=32 1=3 4=1 5=1 6=46080 9=2 -23310=1,2.000000e-01
Concat           /Concat_203              5 1 /Add_65_output_0_splitncnn_1 /LeakyRelu_200_output_0_splitncnn_0 /LeakyRelu_201_output_0_splitncnn_0 /LeakyRelu_202_output_0_splitncnn_0 /LeakyRelu_203_output_0 /Concat_203_output_0
Convolution      /Conv_255                1 1 /Concat_203_output_0 /Conv_255_output_0 0=64 1=3 4=1 5=1 6=110592
Eltwise          /Add_66                  2 1 /Conv_255_output_0 /Add_65_output_0_splitncnn_0 /Add_66_output_0 0=1 -23301=2,2.000000e-01,1.000000e+00
Eltwise          /Add_67                  2 1 /Add_66_output_0 /Add_63_output_0_splitncnn_0 /Add_67_output_0 0=1 -23301=2,2.000000e-01,1.000000e+00
Split            splitncnn_204            1 7 /Add_67_output_0 /Add_67_output_0_splitncnn_0 /Add_67_output_0_splitncnn_1 /Add_67_output_0_splitncnn_2 /Add_67_output_0_splitncnn_3 /Add_67_output_0_splitncnn_4 /Add_67_output_0_splitncnn_5 /Add_67_output_0_splitncnn_6
Convolution      /Conv_256                1 1 /Add_67_output_0_splitncnn_6 /LeakyRelu_204_output_0 0=32 1=3 4=1 5=1 6=18432 9=2 -23310=1,2.000000e-01
Split            splitncnn_205            1 4 /LeakyRelu_204_output_0 /LeakyRelu_204_output_0_splitncnn_0 /LeakyRelu_204_output_0_splitncnn_1 /LeakyRelu_204_output_0_splitncnn_2 /LeakyRelu_204_output_0_splitncnn_3
Concat           /Concat_204              2 1 /Add_67_output_0_splitncnn_5 /LeakyRelu_204_output_0_splitncnn_3 /Concat_204_output_0
Convolution      /Conv_257                1 1 /Concat_204_output_0 /LeakyRelu_205_output_0 0=32 1=3 4=1 5=1 6=27648 9=2 -23310=1,2.000000e-01
Split            splitncnn_206            1 3 /LeakyRelu_205_output_0 /LeakyRelu_205_output_0_splitncnn_0 /LeakyRelu_205_output_0_splitncnn_1 /LeakyRelu_205_output_0_splitncnn_2
Concat           /Concat_205              3 1 /Add_67_output_0_splitncnn_4 /LeakyRelu_204_output_0_splitncnn_2 /LeakyRelu_205_output_0_splitncnn_2 /Concat_205_output_0
Convolution      /Conv_258                1 1 /Concat_205_output_0 /LeakyRelu_206_output_0 0=32 1=3 4=1 5=1 6=36864 9=2 -23310=1,2.000000e-01
Split            splitncnn_207            1 2 /LeakyRelu_206_output_0 /LeakyRelu_206_output_0_splitncnn_0 /LeakyRelu_206_output_0_splitncnn_1
Concat           /Concat_206              4 1 /Add_67_output_0_splitncnn_3 /LeakyRelu_204_output_0_splitncnn_1 /LeakyRelu_205_output_0_splitncnn_1 /LeakyRelu_206_output_0_splitncnn_1 /Concat_206_output_0
Convolution      /Conv_259                1 1 /Concat_206_output_0 /LeakyRelu_207_output_0 0=32 1=3 4=1 5=1 6=46080 9=2 -23310=1,2.000000e-01
Concat           /Concat_207              5 1 /Add_67_output_0_splitncnn_2 /LeakyRelu_204_output_0_splitncnn_0 /LeakyRelu_205_output_0_splitncnn_0 /LeakyRelu_206_output_0_splitncnn_0 /LeakyRelu_207_output_0 /Concat_207_output_0
Convolution      /Conv_260                1 1 /Concat_207_output_0 /Conv_260_output_0 0=64 1=3 4=1 5=1 6=110592
Eltwise          /Add_68                  2 1 /Conv_260_output_0 /Add_67_output_0_splitncnn_1 /Add_68_output_0 0=1 -23301=2,2.000000e-01,1.000000e+00
Split            splitncnn_208            1 6 /Add_68_output_0 /Add_68_output_0_splitncnn_0 /Add_68_output_0_splitncnn_1 /Add_68_output_0_splitncnn_2 /Add_68_output_0_splitncnn_3 /Add_68_output_0_splitncnn_4 /Add_68_output_0_splitncnn_5
Convolution      /Conv_261                1 1 /Add_68_output_0_splitncnn_5 /LeakyRelu_208_output_0 0=32 1=3 4=1 5=1 6=18432 9=2 -23310=1,2.000000e-01
Split            splitncnn_209            1 4 /LeakyRelu_208_output_0 /LeakyRelu_208_output_0_splitncnn_0 /LeakyRelu_208_output_0_splitncnn_1 /LeakyRelu_208_output_0_splitncnn_2 /LeakyRelu_208_output_0_splitncnn_3
Concat           /Concat_208              2 1 /Add_68_output_0_splitncnn_4 /LeakyRelu_208_output_0_splitncnn_3 /Concat_208_output_0
Convolution      /Conv_262                1 1 /Concat_208_output_0 /LeakyRelu_209_output_0 0=32 1=3 4=1 5=1 6=27648 9=2 -23310=1,2.000000e-01
Split            splitncnn_210            1 3 /LeakyRelu_209_output_0 /LeakyRelu_209_output_0_splitncnn_0 /LeakyRelu_209_output_0_splitncnn_1 /LeakyRelu_209_output_0_splitncnn_2
Concat           /Concat_209              3 1 /Add_68_output_0_splitncnn_3 /LeakyRelu_208_output_0_splitncnn_2 /LeakyRelu_209_output_0_splitncnn_2 /Concat_209_output_0
Convolution      /Conv_263                1 1 /Concat_209_output_0 /LeakyRelu_210_output_0 0=32 1=3 4=1 5=1 6=36864 9=2 -23310=1,2.000000e-01
Split            splitncnn_211            1 2 /LeakyRelu_210_output_0 /LeakyRelu_210_output_0_splitncnn_0 /LeakyRelu_210_output_0_splitncnn_1
Concat           /Concat_210              4 1 /Add_68_output_0_splitncnn_2 /LeakyRelu_208_output_0_splitncnn_1 /LeakyRelu_209_output_0_splitncnn_1 /LeakyRelu_210_output_0_splitncnn_1 /Concat_210_output_0
Convolution      /Conv_264                1 1 /Concat_210_output_0 /LeakyRelu_211_output_0 0=32 1=3 4=1 5=1 6=46080 9=2 -23310=1,2.000000e-01
Concat           /Concat_211              5 1 /Add_68_output_0_splitncnn_1 /LeakyRelu_208_output_0_splitncnn_0 /LeakyRelu_209_output_0_splitncnn_0 /LeakyRelu_210_output_0_splitncnn_0 /LeakyRelu_211_output_0 /Concat_211_output_0
Convolution      /Conv_265                1 1 /Concat_211_output_0 /Conv_265_output_0 0=64 1=3 4=1 5=1 6=110592
Eltwise          /Add_69                  2 1 /Conv_265_output_0 /Add_68_output_0_splitncnn_0 /Add_69_output_0 0=1 -23301=2,2.000000e-01,1.000000e+00
Split            splitncnn_212            1 6 /Add_69_output_0 /Add_69_output_0_splitncnn_0 /Add_69_output_0_splitncnn_1 /Add_69_output_0_splitncnn_2 /Add_69_output_0_splitncnn_3 /Add_69_output_0_splitncnn_4 /Add_69_output_0_splitncnn_5
Convolution      /Conv_266                1 1 /Add_69_output_0_splitncnn_5 /LeakyRelu_212_output_0 0=32 1=3 4=1 5=1 6=18432 9=2 -23310=1,2.000000e-01
Split            splitncnn_213            1 4 /LeakyRelu_212_output_0 /LeakyRelu_212_output_0_splitncnn_0 /LeakyRelu_212_output_0_splitncnn_1 /LeakyRelu_212_output_0_splitncnn_2 /LeakyRelu_212_output_0_splitncnn_3
Concat           /Concat_212              2 1 /Add_69_output_0_splitncnn_4 /LeakyRelu_212_output_0_splitncnn_3 /Concat_212_output_0
Convolution      /Conv_267                1 1 /Concat_212_output_0 /LeakyRelu_213_output_0 0=32 1=3 4=1 5=1 6=27648 9=2 -23310=1,2.000000e-01
Split            splitncnn_214            1 3 /LeakyRelu_213_output_0 /LeakyRelu_213_output_0_splitncnn_0 /LeakyRelu_213_output_0_splitncnn_1 /LeakyRelu_213_output_0_splitncnn_2
Concat           /Concat_213              3 1 /Add_69_output_0_splitncnn_3 /LeakyRelu_212_output_0_splitncnn_2 /LeakyRelu_213_output_0_splitncnn_2 /Concat_213_output_0
Convolution      /Conv_268                1 1 /Concat_213_output_0 /LeakyRelu_214_output_0 0=32 1=3 4=1 5=1 6=36864 9=2 -23310=1,2.000000e-01
Split            splitncnn_215            1 2 /LeakyRelu_214_output_0 /LeakyRelu_214_output_0_splitncnn_0 /LeakyRelu_214_output_0_splitncnn_1
Concat           /Concat_214              4 1 /Add_69_output_0_splitncnn_2 /LeakyRelu_212_output_0_splitncnn_1 /LeakyRelu_213_output_0_splitncnn_1 /LeakyRelu_214_output_0_splitncnn_1 /Concat_214_output_0
Convolution      /Conv_269                1 1 /Concat_214_output_0 /LeakyRelu_215_output_0 0=32 1=3 4=1 5=1 6=46080 9=2 -23310=1,2.000000e-01
Concat           /Concat_215              5 1 /Add_69_output_0_splitncnn_1 /LeakyRelu_212_output_0_splitncnn_0 /LeakyRelu_213_output_0_splitncnn_0 /LeakyRelu_214_output_0_splitncnn_0 /LeakyRelu_215_output_0 /Concat_215_output_0
Convolution      /Conv_270                1 1 /Concat_215_output_0 /Conv_270_output_0 0=64 1=3 4=1 5=1 6=110592
Eltwise          /Add_70                  2 1 /Conv_270_output_0 /Add_69_output_0_splitncnn_0 /Add_70_output_0 0=1 -23301=2,2.000000e-01,1.000000e+00
Eltwise          /Add_71                  2 1 /Add_70_output_0 /Add_67_output_0_splitncnn_0 /Add_71_output_0 0=1 -23301=2,2.000000e-01,1.000000e+00
Split            splitncnn_216            1 7 /Add_71_output_0 /Add_71_output_0_splitncnn_0 /Add_71_output_0_splitncnn_1 /Add_71_output_0_splitncnn_2 /Add_71_output_0_splitncnn_3 /Add_71_output_0_splitncnn_4 /Add_71_output_0_splitncnn_5 /Add_71_output_0_splitncnn_6
Convolution      /Conv_271                1 1 /Add_71_output_0_splitncnn_6 /LeakyRelu_216_output_0 0=32 1=3 4=1 5=1 6=18432 9=2 -23310=1,2.000000e-01
Split            splitncnn_217            1 4 /LeakyRelu_216_output_0 /LeakyRelu_216_output_0_splitncnn_0 /LeakyRelu_216_output_0_splitncnn_1 /LeakyRelu_216_output_0_splitncnn_2 /LeakyRelu_216_output_0_splitncnn_3
Concat           /Concat_216              2 1 /Add_71_output_0_splitncnn_5 /LeakyRelu_216_output_0_splitncnn_3 /Concat_216_output_0
Convolution      /Conv_272                1 1 /Concat_216_output_0 /LeakyRelu_217_output_0 0=32 1=3 4=1 5=1 6=27648 9=2 -23310=1,2.000000e-01
Split            splitncnn_218            1 3 /LeakyRelu_217_output_0 /LeakyRelu_217_output_0_splitncnn_0 /LeakyRelu_217_output_0_splitncnn_1 /LeakyRelu_217_output_0_splitncnn_2
Concat           /Concat_217              3 1 /Add_71_output_0_splitncnn_4 /LeakyRelu_216_output_0_splitncnn_2 /LeakyRelu_217_output_0_splitncnn_2 /Concat_217_output_0
Convolution      /Conv_273                1 1 /Concat_217_output_0 /LeakyRelu_218_output_0 0=32 1=3 4=1 5=1 6=36864 9=2 -23310=1,2.000000e-01
Split            splitncnn_219            1 2 /LeakyRelu_218_output_0 /LeakyRelu_218_output_0_splitncnn_0 /LeakyRelu_218_output_0_splitncnn_1
Concat           /Concat_218              4 1 /Add_71_output_0_splitncnn_3 /LeakyRelu_216_output_0_splitncnn_1 /LeakyRelu_217_output_0_splitncnn_1 /LeakyRelu_218_output_0_splitncnn_1 /Concat_218_output_0
Convolution      /Conv_274                1 1 /Concat_218_output_0 /LeakyRelu_219_output_0 0=32 1=3 4=1 5=1 6=46080 9=2 -23310=1,2.000000e-01
Concat           /Concat_219              5 1 /Add_71_output_0_splitncnn_2 /LeakyRelu_216_output_0_splitncnn_0 /LeakyRelu_217_output_0_splitncnn_0 /LeakyRelu_218_output_0_splitncnn_0 /LeakyRelu_219_output_0 /Concat_219_output_0
Convolution      /Conv_275                1 1 /Concat_219_output_0 /Conv_275_output_0 0=64 1=3 4=1 5=1 6=110592
Eltwise          /Add_72                  2 1 /Conv_275_output_0 /Add_71_output_0_splitncnn_1 /Add_72_output_0 0=1 -23301=2,2.000000e-01,1.000000e+00
Split            splitncnn_220            1 6 /Add_72_output_0 /Add_72_output_0_splitncnn_0 /Add_72_output_0_splitncnn_1 /Add_72_output_0_splitncnn_2 /Add_72_output_0_splitncnn_3 /Add_72_output_0_splitncnn_4 /Add_72_output_0_splitncnn_5
Convolution      /Conv_276                1 1 /Add_72_output_0_splitncnn_5 /LeakyRelu_220_output_0 0=32 1=3 4=1 5=1 6=18432 9=2 -23310=1,2.000000e-01
Split            splitncnn_221            1 4 /LeakyRelu_220_output_0 /LeakyRelu_220_output_0_splitncnn_0 /LeakyRelu_220_output_0_splitncnn_1 /LeakyRelu_220_output_0_splitncnn_2 /LeakyRelu_220_output_0_splitncnn_3
Concat           /Concat_220              2 1 /Add_72_output_0_splitncnn_4 /LeakyRelu_220_output_0_splitncnn_3 /Concat_220_output_0
Convolution      /Conv_277                1 1 /Concat_220_output_0 /LeakyRelu_221_output_0 0=32 1=3 4=1 5=1 6=27648 9=2 -23310=1,2.000000e-01
Split            splitncnn_222            1 3 /LeakyRelu_221_output_0 /LeakyRelu_221_output_0_splitncnn_0 /LeakyRelu_221_output_0_splitncnn_1 /LeakyRelu_221_output_0_splitncnn_2
Concat           /Concat_221              3 1 /Add_72_output_0_splitncnn_3 /LeakyRelu_220_output_0_splitncnn_2 /LeakyRelu_221_output_0_splitncnn_2 /Concat_221_output_0
Convolution      /Conv_278                1 1 /Concat_221_output_0 /LeakyRelu_222_output_0 0=32 1=3 4=1 5=1 6=36864 9=2 -23310=1,2.000000e-01
Split            splitncnn_223            1 2 /LeakyRelu_222_output_0 /LeakyRelu_222_output_0_splitncnn_0 /LeakyRelu_222_output_0_splitncnn_1
Concat           /Concat_222              4 1 /Add_72_output_0_splitncnn_2 /LeakyRelu_220_output_0_splitncnn_1 /LeakyRelu_221_output_0_splitncnn_1 /LeakyRelu_222_output_0_splitncnn_1 /Concat_222_output_0
Convolution      /Conv_279                1 1 /Concat_222_output_0 /LeakyRelu_223_output_0 0=32 1=3 4=1 5=1 6=46080 9=2 -23310=1,2.000000e-01
Concat           /Concat_223              5 1 /Add_72_output_0_splitncnn_1 /LeakyRelu_220_output_0_splitncnn_0 /LeakyRelu_221_output_0_splitncnn_0 /LeakyRelu_222_output_0_splitncnn_0 /LeakyRelu_223_output_0 /Concat_223_output_0
Convolution      /Conv_280                1 1 /Concat_223_output_0 /Conv_280_output_0 0=64 1=3 4=1 5=1 6=110592
Eltwise          /Add_73                  2 1 /Conv_280_output_0 /Add_72_output_0_splitncnn_0 /Add_73_output_0 0=1 -23301=2,2.000000e-01,1.000000e+00
Split            splitncnn_224            1 6 /Add_73_output_0 /Add_73_output_0_splitncnn_0 /Add_73_output_0_splitncnn_1 /Add_73_output_0_splitncnn_2 /Add_73_output_0_splitncnn_3 /Add_73_output_0_splitncnn_4 /Add_73_output_0_splitncnn_5
Convolution      /Conv_281                1 1 /Add_73_output_0_splitncnn_5 /LeakyRelu_224_output_0 0=32 1=3 4=1 5=1 6=18432 9=2 -23310=1,2.000000e-01
Split            splitncnn_225            1 4 /LeakyRelu_224_output_0 /LeakyRelu_224_output_0_splitncnn_0 /LeakyRelu_224_output_0_splitncnn_1 /LeakyRelu_224_output_0_splitncnn_2 /LeakyRelu_224_output_0_splitncnn_3
Concat           /Concat_224              2 1 /Add_73_output_0_splitncnn_4 /LeakyRelu_224_output_0_splitncnn_3 /Concat_224_output_0
Convolution      /Conv_282                1 1 /Concat_224_output_0 /LeakyRelu_225_output_0 0=32 1=3 4=1 5=1 6=27648 9=2 -23310=1,2.000000e-01
Split            splitncnn_226            1 3 /LeakyRelu_225_output_0 /LeakyRelu_225_output_0_splitncnn_0 /LeakyRelu_225_output_0_splitncnn_1 /LeakyRelu_225_output_0_splitncnn_2
Concat           /Concat_225              3 1 /Add_73_output_0_splitncnn_3 /LeakyRelu_224_output_0_splitncnn_2 /LeakyRelu_225_output_0_splitncnn_2 /Concat_225_output_0
Convolution      /Conv_283                1 1 /Concat_225_output_0 /LeakyRelu_226_output_0 0=32 1=3 4=1 5=1 6=36864 9=2 -23310=1,2.000000e-01
Split            splitncnn_227            1 2 /LeakyRelu_226_output_0 /LeakyRelu_226_output_0_splitncnn_0 /LeakyRelu_226_output_0_splitncnn_1
Concat           /Concat_226              4 1 /Add_73_output_0_splitncnn_2 /LeakyRelu_224_output_0_splitncnn_1 /LeakyRelu_225_output_0_splitncnn_1 /LeakyRelu_226_output_0_splitncnn_1 /Concat_226_output_0
Convolution      /Conv_284                1 1 /Concat_226_output_0 /LeakyRelu_227_output_0 0=32 1=3 4=1 5=1 6=46080 9=2 -23310=1,2.000000e-01
Concat           /Concat_227              5 1 /Add_73_output_0_splitncnn_1 /LeakyRelu_224_output_0_splitncnn_0 /LeakyRelu_225_output_0_splitncnn_0 /LeakyRelu_226_output_0_splitncnn_0 /LeakyRelu_227_output_0 /Concat_227_output_0
Convolution      /Conv_285                1 1 /Concat_227_output_0 /Conv_285_output_0 0=64 1=3 4=1 5=1 6=110592
Eltwise          /Add_74                  2 1 /Conv_285_output_0 /Add_73_output_0_splitncnn_0 /Add_74_output_0 0=1 -23301=2,2.000000e-01,1.000000e+00
Eltwise          /Add_75                  2 1 /Add_74_output_0 /Add_71_output_0_splitncnn_0 /Add_75_output_0 0=1 -23301=2,2.000000e-01,1.000000e+00
Split            splitncnn_228            1 7 /Add_75_output_0 /Add_75_output_0_splitncnn_0 /Add_75_output_0_splitncnn_1 /Add_75_output_0_splitncnn_2 /Add_75_output_0_splitncnn_3 /Add_75_output_0_splitncnn_4 /Add_75_output_0_splitncnn_5 /Add_75_output_0_splitncnn_6
Convolution      /Conv_286                1 1 /Add_75_output_0_splitncnn_6 /LeakyRelu_228_output_0 0=32 1=3 4=1 5=1 6=18432 9=2 -23310=1,2.000000e-01
Split            splitncnn_229            1 4 /LeakyRelu_228_output_0 /LeakyRelu_228_output_0_splitncnn_0 /LeakyRelu_228_output_0_splitncnn_1 /LeakyRelu_228_output_0_splitncnn_2 /LeakyRelu_228_output_0_splitncnn_3
Concat           /Concat_228              2 1 /Add_75_output_0_splitncnn_5 /LeakyRelu_228_output_0_splitncnn_3 /Concat_228_output_0
Convolution      /Conv_287                1 1 /Concat_228_output_0 /LeakyRelu_229_output_0 0=32 1=3 4=1 5=1 6=27648 9=2 -23310=1,2.000000e-01
Split            splitncnn_230            1 3 /LeakyRelu_229_output_0 /LeakyRelu_229_output_0_splitncnn_0 /LeakyRelu_229_output_0_splitncnn_1 /LeakyRelu_229_output_0_splitncnn_2
Concat           /Concat_229              3 1 /Add_75_output_0_splitncnn_4 /LeakyRelu_228_output_0_splitncnn_2 /LeakyRelu_229_output_0_splitncnn_2 /Concat_229_output_0
Convolution      /Conv_288                1 1 /Concat_229_output_0 /LeakyRelu_230_output_0 0=32 1=3 4=1 5=1 6=36864 9=2 -23310=1,2.000000e-01
Split            splitncnn_231            1 2 /LeakyRelu_230_output_0 /LeakyRelu_230_output_0_splitncnn_0 /LeakyRelu_230_output_0_splitncnn_1
Concat           /Concat_230              4 1 /Add_75_output_0_splitncnn_3 /LeakyRelu_228_output_0_splitncnn_1 /LeakyRelu_229_output_0_splitncnn_1 /LeakyRelu_230_output_0_splitncnn_1 /Concat_230_output_0
Convolution      /Conv_289                1 1 /Concat_230_output_0 /LeakyRelu_231_output_0 0=32 1=3 4=1 5=1 6=46080 9=2 -23310=1,2.000000e-01
Concat           /Concat_231              5 1 /Add_75_output_0_splitncnn_2 /LeakyRelu_228_output_0_splitncnn_0 /LeakyRelu_229_output_0_splitncnn_0 /LeakyRelu_230_output_0_splitncnn_0 /LeakyRelu_231_output_0 /Concat_231_output_0
Convolution      /Conv_290                1 1 /Concat_231_output_0 /Conv_290_output_0 0=64 1=3 4=1 5=1 6=110592
Eltwise          /Add_76                  2 1 /Conv_290_output_0 /Add_75_output_0_splitncnn_1 /Add_76_output_0 0=1 -23301=2,2.000000e-01,1.000000e+00
Split            splitncnn_232            1 6 /Add_76_output_0 /Add_76_output_0_splitncnn_0 /Add_76_output_0_splitncnn_1 /Add_76_output_0_splitncnn_2 /Add_76_output_0_splitncnn_3 /Add_76_output_0_splitncnn_4 /Add_76_output_0_splitncnn_5
Convolution      /Conv_291                1 1 /Add_76_output_0_splitncnn_5 /LeakyRelu_232_output_0 0=32 1=3 4=1 5=1 6=18432 9=2 -23310=1,2.000000e-01
Split            splitncnn_233            1 4 /LeakyRelu_232_output_0 /LeakyRelu_232_output_0_splitncnn_0 /LeakyRelu_232_output_0_splitncnn_1 /LeakyRelu_232_output_0_splitncnn_2 /LeakyRelu_232_output_0_splitncnn_3
Concat           /Concat_232              2 1 /Add_76_output_0_splitncnn_4 /LeakyRelu_232_output_0_splitncnn_3 /Concat_232_output_0
Convolution      /Conv_292                1 1 /Concat_232_output_0 /LeakyRelu_233_output_0 0=32 1=3 4=1 5=1 6=27648 9=2 -23310=1,2.000000e-01
Split            splitncnn_234            1 3 /LeakyRelu_233_output_0 /LeakyRelu_233_output_0_splitncnn_0 /LeakyRelu_233_output_0_splitncnn_1 /LeakyRelu_233_output_0_splitncnn_2
Concat           /Concat_233              3 1 /Add_76_output_0_splitncnn_3 /LeakyRelu_232_output_0_splitncnn_2 /LeakyRelu_233_output_0_splitncnn_2 /Concat_233_output_0
Convolution      /Conv_293                1 1 /Concat_233_output_0 /LeakyRelu_234_output_0 0=32 1=3 4=1 5=1 6=36864 9=2 -23310=1,2.000000e-01
Split            splitncnn_235            1 2 /LeakyRelu_234_output_0 /LeakyRelu_234_output_0_splitncnn_0 /LeakyRelu_234_output_0_splitncnn_1
Concat           /Concat_234              4 1 /Add_76_output_0_splitncnn_2 /LeakyRelu_232_output_0_splitncnn_1 /LeakyRelu_233_output_0_splitncnn_1 /LeakyRelu_234_output_0_splitncnn_1 /Concat_234_output_0
Convolution      /Conv_294                1 1 /Concat_234_output_0 /LeakyRelu_235_output_0 0=32 1=3 4=1 5=1 6=46080 9=2 -23310=1,2.000000e-01
Concat           /Concat_235              5 1 /Add_76_output_0_splitncnn_1 /LeakyRelu_232_output_0_splitncnn_0 /LeakyRelu_233_output_0_splitncnn_0 /LeakyRelu_234_output_0_splitncnn_0 /LeakyRelu_235_output_0 /Concat_235_output_0
Convolution      /Conv_295                1 1 /Concat_235_output_0 /Conv_295_output_0 0=64 1=3 4=1 5=1 6=110592
Eltwise          /Add_77                  2 1 /Conv_295_output_0 /Add_76_output_0_splitncnn_0 /Add_77_output_0 0=1 -23301=2,2.000000e-01,1.000000e+00
Split            splitncnn_236            1 6 /Add_77_output_0 /Add_77_output_0_splitncnn_0 /Add_77_output_0_splitncnn_1 /Add_77_output_0_splitncnn_2 /Add_77_output_0_splitncnn_3 /Add_77_output_0_splitncnn_4 /Add_77_output_0_splitncnn_5
Convolution      /Conv_296                1 1 /Add_77_output_0_splitncnn_5 /LeakyRelu_236_output_0 0=32 1=3 4=1 5=1 6=18432 9=2 -23310=1,2.000000e-01
Split            splitncnn_237            1 4 /LeakyRelu_236_output_0 /LeakyRelu_236_output_0_splitncnn_0 /LeakyRelu_236_output_0_splitncnn_1 /LeakyRelu_236_output_0_splitncnn_2 /LeakyRelu_236_output_0_splitncnn_3
Concat           /Concat_236              2 1 /Add_77_output_0_splitncnn_4 /LeakyRelu_236_output_0_splitncnn_3 /Concat_236_output_0
Convolution      /Conv_297                1 1 /Concat_236_output_0 /LeakyRelu_237_output_0 0=32 1=3 4=1 5=1 6=27648 9=2 -23310=1,2.000000e-01
Split            splitncnn_238            1 3 /LeakyRelu_237_output_0 /LeakyRelu_237_output_0_splitncnn_0 /LeakyRelu_237_output_0_splitncnn_1 /LeakyRelu_237_output_0_splitncnn_2
Concat           /Concat_237              3 1 /Add_77_output_0_splitncnn_3 /LeakyRelu_236_output_0_splitncnn_2 /LeakyRelu_237_output_0_splitncnn_2 /Concat_237_output_0
Convolution      /Conv_298                1 1 /Concat_237_output_0 /LeakyRelu_238_output_0 0=32 1=3 4=1 5=1 6=36864 9=2 -23310=1,2.000000e-01
Split            splitncnn_239            1 2 /LeakyRelu_238_output_0 /LeakyRelu_238_output_0_splitncnn_0 /LeakyRelu_238_output_0_splitncnn_1
Concat           /Concat_238              4 1 /Add_77_output_0_splitncnn_2 /LeakyRelu_236_output_0_splitncnn_1 /LeakyRelu_237_output_0_splitncnn_1 /LeakyRelu_238_output_0_splitncnn_1 /Concat_238_output_0
Convolution      /Conv_299                1 1 /Concat_238_output_0 /LeakyRelu_239_output_0 0=32 1=3 4=1 5=1 6=46080 9=2 -23310=1,2.000000e-01
Concat           /Concat_239              5 1 /Add_77_output_0_splitncnn_1 /LeakyRelu_236_output_0_splitncnn_0 /LeakyRelu_237_output_0_splitncnn_0 /LeakyRelu_238_output_0_splitncnn_0 /LeakyRelu_239_output_0 /Concat_239_output_0
Convolution      /Conv_300                1 1 /Concat_239_output_0 /Conv_300_output_0 0=64 1=3 4=1 5=1 6=110592
Eltwise          /Add_78                  2 1 /Conv_300_output_0 /Add_77_output_0_splitncnn_0 /Add_78_output_0 0=1 -23301=2,2.000000e-01,1.000000e+00
Eltwise          /Add_79                  2 1 /Add_78_output_0 /Add_75_output_0_splitncnn_0 /Add_79_output_0 0=1 -23301=2,2.000000e-01,1.000000e+00
Split            splitncnn_240            1 7 /Add_79_output_0 /Add_79_output_0_splitncnn_0 /Add_79_output_0_splitncnn_1 /Add_79_output_0_splitncnn_2 /Add_79_output_0_splitncnn_3 /Add_79_output_0_splitncnn_4 /Add_79_output_0_splitncnn_5 /Add_79_output_0_splitncnn_6
Convolution      /Conv_301                1 1 /Add_79_output_0_splitncnn_6 /LeakyRelu_240_output_0 0=32 1=3 4=1 5=1 6=18432 9=2 -23310=1,2.000000e-01
Split            splitncnn_241            1 4 /LeakyRelu_240_output_0 /LeakyRelu_240_output_0_splitncnn_0 /LeakyRelu_240_output_0_splitncnn_1 /LeakyRelu_240_output_0_splitncnn_2 /LeakyRelu_240_output_0_splitncnn_3
Concat           /Concat_240              2 1 /Add_79_output_0_splitncnn_5 /LeakyRelu_240_output_0_splitncnn_3 /Concat_240_output_0
Convolution      /Conv_302                1 1 /Concat_240_output_0 /LeakyRelu_241_output_0 0=32 1=3 4=1 5=1 6=27648 9=2 -23310=1,2.000000e-01
Split            splitncnn_242            1 3 /LeakyRelu_241_output_0 /LeakyRelu_241_output_0_splitncnn_0 /LeakyRelu_241_output_0_splitncnn_1 /LeakyRelu_241_output_0_splitncnn_2
Concat           /Concat_241              3 1 /Add_79_output_0_splitncnn_4 /LeakyRelu_240_output_0_splitncnn_2 /LeakyRelu_241_output_0_splitncnn_2 /Concat_241_output_0
Convolution      /Conv_303                1 1 /Concat_241_output_0 /LeakyRelu_242_output_0 0=32 1=3 4=1 5=1 6=36864 9=2 -23310=1,2.000000e-01
Split            splitncnn_243            1 2 /LeakyRelu_242_output_0 /LeakyRelu_242_output_0_splitncnn_0 /LeakyRelu_242_output_0_splitncnn_1
Concat           /Concat_242              4 1 /Add_79_output_0_splitncnn_3 /LeakyRelu_240_output_0_splitncnn_1 /LeakyRelu_241_output_0_splitncnn_1 /LeakyRelu_242_output_0_splitncnn_1 /Concat_242_output_0
Convolution      /Conv_304                1 1 /Concat_242_output_0 /LeakyRelu_243_output_0 0=32 1=3 4=1 5=1 6=46080 9=2 -23310=1,2.000000e-01
Concat           /Concat_243              5 1 /Add_79_output_0_splitncnn_2 /LeakyRelu_240_output_0_splitncnn_0 /LeakyRelu_241_output_0_splitncnn_0 /LeakyRelu_242_output_0_splitncnn_0 /LeakyRelu_243_output_0 /Concat_243_output_0
Convolution      /Conv_305                1 1 /Concat_243_output_0 /Conv_305_output_0 0=64 1=3 4=1 5=1 6=110592
Eltwise          /Add_80                  2 1 /Conv_305_output_0 /Add_79_output_0_splitncnn_1 /Add_80_output_0 0=1 -23301=2,2.000000e-01,1.000000e+00
Split            splitncnn_244            1 6 /Add_80_output_0 /Add_80_output_0_splitncnn_0 /Add_80_output_0_splitncnn_1 /Add_80_output_0_splitncnn_2 /Add_80_output_0_splitncnn_3 /Add_80_output_0_splitncnn_4 /Add_80_output_0_splitncnn_5
Convolution      /Conv_306                1 1 /Add_80_output_0_splitncnn_5 /LeakyRelu_244_output_0 0=32 1=3 4=1 5=1 6=18432 9=2 -23310=1,2.000000e-01
Split            splitncnn_245            1 4 /LeakyRelu_244_output_0 /LeakyRelu_244_output_0_splitncnn_0 /LeakyRelu_244_output_0_splitncnn_1 /LeakyRelu_244_output_0_splitncnn_2 /LeakyRelu_244_output_0_splitncnn_3
Concat           /Concat_244              2 1 /Add_80_output_0_splitncnn_4 /LeakyRelu_244_output_0_splitncnn_3 /Concat_244_output_0
Convolution      /Conv_307                1 1 /Concat_244_output_0 /LeakyRelu_245_output_0 0=32 1=3 4=1 5=1 6=27648 9=2 -23310=1,2.000000e-01
Split            splitncnn_246            1 3 /LeakyRelu_245_output_0 /LeakyRelu_245_output_0_splitncnn_0 /LeakyRelu_245_output_0_splitncnn_1 /LeakyRelu_245_output_0_splitncnn_2
Concat           /Concat_245              3 1 /Add_80_output_0_splitncnn_3 /LeakyRelu_244_output_0_splitncnn_2 /LeakyRelu_245_output_0_splitncnn_2 /Concat_245_output_0
Convolution      /Conv_308                1 1 /Concat_245_output_0 /LeakyRelu_246_output_0 0=32 1=3 4=1 5=1 6=36864 9=2 -23310=1,2.000000e-01
Split            splitncnn_247            1 2 /LeakyRelu_246_output_0 /LeakyRelu_246_output_0_splitncnn_0 /LeakyRelu_246_output_0_splitncnn_1
Concat           /Concat_246              4 1 /Add_80_output_0_splitncnn_2 /LeakyRelu_244_output_0_splitncnn_1 /LeakyRelu_245_output_0_splitncnn_1 /LeakyRelu_246_output_0_splitncnn_1 /Concat_246_output_0
Convolution      /Conv_309                1 1 /Concat_246_output_0 /LeakyRelu_247_output_0 0=32 1=3 4=1 5=1 6=46080 9=2 -23310=1,2.000000e-01
Concat           /Concat_247              5 1 /Add_80_output_0_splitncnn_1 /LeakyRelu_244_output_0_splitncnn_0 /LeakyRelu_245_output_0_splitncnn_0 /LeakyRelu_246_output_0_splitncnn_0 /LeakyRelu_247_output_0 /Concat_247_output_0
Convolution      /Conv_310                1 1 /Concat_247_output_0 /Conv_310_output_0 0=64 1=3 4=1 5=1 6=110592
Eltwise          /Add_81                  2 1 /Conv_310_output_0 /Add_80_output_0_splitncnn_0 /Add_81_output_0 0=1 -23301=2,2.000000e-01,1.000000e+00
Split            splitncnn_248            1 6 /Add_81_output_0 /Add_81_output_0_splitncnn_0 /Add_81_output_0_splitncnn_1 /Add_81_output_0_splitncnn_2 /Add_81_output_0_splitncnn_3 /Add_81_output_0_splitncnn_4 /Add_81_output_0_splitncnn_5
Convolution      /Conv_311                1 1 /Add_81_output_0_splitncnn_5 /LeakyRelu_248_output_0 0=32 1=3 4=1 5=1 6=18432 9=2 -23310=1,2.000000e-01
Split            splitncnn_249            1 4 /LeakyRelu_248_output_0 /LeakyRelu_248_output_0_splitncnn_0 /LeakyRelu_248_output_0_splitncnn_1 /LeakyRelu_248_output_0_splitncnn_2 /LeakyRelu_248_output_0_splitncnn_3
Concat           /Concat_248              2 1 /Add_81_output_0_splitncnn_4 /LeakyRelu_248_output_0_splitncnn_3 /Concat_248_output_0
Convolution      /Conv_312                1 1 /Concat_248_output_0 /LeakyRelu_249_output_0 0=32 1=3 4=1 5=1 6=27648 9=2 -23310=1,2.000000e-01
Split            splitncnn_250            1 3 /LeakyRelu_249_output_0 /LeakyRelu_249_output_0_splitncnn_0 /LeakyRelu_249_output_0_splitncnn_1 /LeakyRelu_249_output_0_splitncnn_2
Concat           /Concat_249              3 1 /Add_81_output_0_splitncnn_3 /LeakyRelu_248_output_0_splitncnn_2 /LeakyRelu_249_output_0_splitncnn_2 /Concat_249_output_0
Convolution      /Conv_313                1 1 /Concat_249_output_0 /LeakyRelu_250_output_0 0=32 1=3 4=1 5=1 6=36864 9=2 -23310=1,2.000000e-01
Split            splitncnn_251            1 2 /LeakyRelu_250_output_0 /LeakyRelu_250_output_0_splitncnn_0 /LeakyRelu_250_output_0_splitncnn_1
Concat           /Concat_250              4 1 /Add_81_output_0_splitncnn_2 /LeakyRelu_248_output_0_splitncnn_1 /LeakyRelu_249_output_0_splitncnn_1 /LeakyRelu_250_output_0_splitncnn_1 /Concat_250_output_0
Convolution      /Conv_314                1 1 /Concat_250_output_0 /LeakyRelu_251_output_0 0=32 1=3 4=1 5=1 6=46080 9=2 -23310=1,2.000000e-01
Concat           /Concat_251              5 1 /Add_81_output_0_splitncnn_1 /LeakyRelu_248_output_0_splitncnn_0 /LeakyRelu_249_output_0_splitncnn_0 /LeakyRelu_250_output_0_splitncnn_0 /LeakyRelu_251_output_0 /Concat_251_output_0
Convolution      /Conv_315                1 1 /Concat_251_output_0 /Conv_315_output_0 0=64 1=3 4=1 5=1 6=110592
Eltwise          /Add_82                  2 1 /Conv_315_output_0 /Add_81_output_0_splitncnn_0 /Add_82_output_0 0=1 -23301=2,2.000000e-01,1.000000e+00
Eltwise          /Add_83                  2 1 /Add_82_output_0 /Add_79_output_0_splitncnn_0 /Add_83_output_0 0=1 -23301=2,2.000000e-01,1.000000e+00
Split            splitncnn_252            1 7 /Add_83_output_0 /Add_83_output_0_splitncnn_0 /Add_83_output_0_splitncnn_1 /Add_83_output_0_splitncnn_2 /Add_83_output_0_splitncnn_3 /Add_83_output_0_splitncnn_4 /Add_83_output_0_splitncnn_5 /Add_83_output_0_splitncnn_6
Convolution      /Conv_316                1 1 /Add_83_output_0_splitncnn_6 /LeakyRelu_252_output_0 0=32 1=3 4=1 5=1 6=18432 9=2 -23310=1,2.000000e-01
Split            splitncnn_253            1 4 /LeakyRelu_252_output_0 /LeakyRelu_252_output_0_splitncnn_0 /LeakyRelu_252_output_0_splitncnn_1 /LeakyRelu_252_output_0_splitncnn_2 /LeakyRelu_252_output_0_splitncnn_3
Concat           /Concat_252              2 1 /Add_83_output_0_splitncnn_5 /LeakyRelu_252_output_0_splitncnn_3 /Concat_252_output_0
Convolution      /Conv_317                1 1 /Concat_252_output_0 /LeakyRelu_253_output_0 0=32 1=3 4=1 5=1 6=27648 9=2 -23310=1,2.000000e-01
Split            splitncnn_254            1 3 /LeakyRelu_253_output_0 /LeakyRelu_253_output_0_splitncnn_0 /LeakyRelu_253_output_0_splitncnn_1 /LeakyRelu_253_output_0_splitncnn_2
Concat           /Concat_253              3 1 /Add_83_output_0_splitncnn_4 /LeakyRelu_252_output_0_splitncnn_2 /LeakyRelu_253_output_0_splitncnn_2 /Concat_253_output_0
Convolution      /Conv_318                1 1 /Concat_253_output_0 /LeakyRelu_254_output_0 0=32 1=3 4=1 5=1 6=36864 9=2 -23310=1,2.000000e-01
Split            splitncnn_255            1 2 /LeakyRelu_254_output_0 /LeakyRelu_254_output_0_splitncnn_0 /LeakyRelu_254_output_0_splitncnn_1
Concat           /Concat_254              4 1 /Add_83_output_0_splitncnn_3 /LeakyRelu_252_output_0_splitncnn_1 /LeakyRelu_253_output_0_splitncnn_1 /LeakyRelu_254_output_0_splitncnn_1 /Concat_254_output_0
Convolution      /Conv_319                1 1 /Concat_254_output_0 /LeakyRelu_255_output_0 0=32 1=3 4=1 5=1 6=46080 9=2 -23310=1,2.000000e-01
Concat           /Concat_255              5 1 /Add_83_output_0_splitncnn_2 /LeakyRelu_252_output_0_splitncnn_0 /LeakyRelu_253_output_0_splitncnn_0 /LeakyRelu_254_output_0_splitncnn_0 /LeakyRelu_255_output_0 /Concat_255_output_0
Convolution      /Conv_320                1 1 /Concat_255_output_0 /Conv_320_output_0 0=64 1=3 4=1 5=1 6=110592
Eltwise          /Add_84                  2 1 /Conv_320_output_0 /Add_83_output_0_splitncnn_1 /Add_84_output_0 0=1 -23301=2,2.000000e-01,1.000000e+00
Split            splitncnn_256            1 6 /Add_84_output_0 /Add_84_output_0_splitncnn_0 /Add_84_output_0_splitncnn_1 /Add_84_output_0_splitncnn_2 /Add_84_output_0_splitncnn_3 /Add_84_output_0_splitncnn_4 /Add_84_output_0_splitncnn_5
Convolution      /Conv_321                1 1 /Add_84_output_0_splitncnn_5 /LeakyRelu_256_output_0 0=32 1=3 4=1 5=1 6=18432 9=2 -23310=1,2.000000e-01
Split            splitncnn_257            1 4 /LeakyRelu_256_output_0 /LeakyRelu_256_output_0_splitncnn_0 /LeakyRelu_256_output_0_splitncnn_1 /LeakyRelu_256_output_0_splitncnn_2 /LeakyRelu_256_output_0_splitncnn_3
Concat           /Concat_256              2 1 /Add_84_output_0_splitncnn_4 /LeakyRelu_256_output_0_splitncnn_3 /Concat_256_output_0
Convolution      /Conv_322                1 1 /Concat_256_output_0 /LeakyRelu_257_output_0 0=32 1=3 4=1 5=1 6=27648 9=2 -23310=1,2.000000e-01
Split            splitncnn_258            1 3 /LeakyRelu_257_output_0 /LeakyRelu_257_output_0_splitncnn_0 /LeakyRelu_257_output_0_splitncnn_1 /LeakyRelu_257_output_0_splitncnn_2
Concat           /Concat_257              3 1 /Add_84_output_0_splitncnn_3 /LeakyRelu_256_output_0_splitncnn_2 /LeakyRelu_257_output_0_splitncnn_2 /Concat_257_output_0
Convolution      /Conv_323                1 1 /Concat_257_output_0 /LeakyRelu_258_output_0 0=32 1=3 4=1 5=1 6=36864 9=2 -23310=1,2.000000e-01
Split            splitncnn_259            1 2 /LeakyRelu_258_output_0 /LeakyRelu_258_output_0_splitncnn_0 /LeakyRelu_258_output_0_splitncnn_1
Concat           /Concat_258              4 1 /Add_84_output_0_splitncnn_2 /LeakyRelu_256_output_0_splitncnn_1 /LeakyRelu_257_output_0_splitncnn_1 /LeakyRelu_258_output_0_splitncnn_1 /Concat_258_output_0
Convolution      /Conv_324                1 1 /Concat_258_output_0 /LeakyRelu_259_output_0 0=32 1=3 4=1 5=1 6=46080 9=2 -23310=1,2.000000e-01
Concat           /Concat_259              5 1 /Add_84_output_0_splitncnn_1 /LeakyRelu_256_output_0_splitncnn_0 /LeakyRelu_257_output_0_splitncnn_0 /LeakyRelu_258_output_0_splitncnn_0 /LeakyRelu_259_output_0 /Concat_259_output_0
Convolution      /Conv_325                1 1 /Concat_259_output_0 /Conv_325_output_0 0=64 1=3 4=1 5=1 6=110592
Eltwise          /Add_85                  2 1 /Conv_325_output_0 /Add_84_output_0_splitncnn_0 /Add_85_output_0 0=1 -23301=2,2.000000e-01,1.000000e+00
Split            splitncnn_260            1 6 /Add_85_output_0 /Add_85_output_0_splitncnn_0 /Add_85_output_0_splitncnn_1 /Add_85_output_0_splitncnn_2 /Add_85_output_0_splitncnn_3 /Add_85_output_0_splitncnn_4 /Add_85_output_0_splitncnn_5
Convolution      /Conv_326                1 1 /Add_85_output_0_splitncnn_5 /LeakyRelu_260_output_0 0=32 1=3 4=1 5=1 6=18432 9=2 -23310=1,2.000000e-01
Split            splitncnn_261            1 4 /LeakyRelu_260_output_0 /LeakyRelu_260_output_0_splitncnn_0 /LeakyRelu_260_output_0_splitncnn_1 /LeakyRelu_260_output_0_splitncnn_2 /LeakyRelu_260_output_0_splitncnn_3
Concat           /Concat_260              2 1 /Add_85_output_0_splitncnn_4 /LeakyRelu_260_output_0_splitncnn_3 /Concat_260_output_0
Convolution      /Conv_327                1 1 /Concat_260_output_0 /LeakyRelu_261_output_0 0=32 1=3 4=1 5=1 6=27648 9=2 -23310=1,2.000000e-01
Split            splitncnn_262            1 3 /LeakyRelu_261_output_0 /LeakyRelu_261_output_0_splitncnn_0 /LeakyRelu_261_output_0_splitncnn_1 /LeakyRelu_261_output_0_splitncnn_2
Concat           /Concat_261              3 1 /Add_85_output_0_splitncnn_3 /LeakyRelu_260_output_0_splitncnn_2 /LeakyRelu_261_output_0_splitncnn_2 /Concat_261_output_0
Convolution      /Conv_328                1 1 /Concat_261_output_0 /LeakyRelu_262_output_0 0=32 1=3 4=1 5=1 6=36864 9=2 -23310=1,2.000000e-01
Split            splitncnn_263            1 2 /LeakyRelu_262_output_0 /LeakyRelu_262_output_0_splitncnn_0 /LeakyRelu_262_output_0_splitncnn_1
Concat           /Concat_262              4 1 /Add_85_output_0_splitncnn_2 /LeakyRelu_260_output_0_splitncnn_1 /LeakyRelu_261_output_0_splitncnn_1 /LeakyRelu_262_output_0_splitncnn_1 /Concat_262_output_0
Convolution      /Conv_329                1 1 /Concat_262_output_0 /LeakyRelu_263_output_0 0=32 1=3 4=1 5=1 6=46080 9=2 -23310=1,2.000000e-01
Concat           /Concat_263              5 1 /Add_85_output_0_splitncnn_1 /LeakyRelu_260_output_0_splitncnn_0 /LeakyRelu_261_output_0_splitncnn_0 /LeakyRelu_262_output_0_splitncnn_0 /LeakyRelu_263_output_0 /Concat_263_output_0
Convolution      /Conv_330                1 1 /Concat_263_output_0 /Conv_330_output_0 0=64 1=3 4=1 5=1 6=110592
Eltwise          /Add_86                  2 1 /Conv_330_output_0 /Add_85_output_0_splitncnn_0 /Add_86_output_0 0=1 -23301=2,2.000000e-01,1.000000e+00
Eltwise          /Add_87                  2 1 /Add_86_output_0 /Add_83_output_0_splitncnn_0 /Add_87_output_0 0=1 -23301=2,2.000000e-01,1.000000e+00
Split            splitncnn_264            1 7 /Add_87_output_0 /Add_87_output_0_splitncnn_0 /Add_87_output_0_splitncnn_1 /Add_87_output_0_splitncnn_2 /Add_87_output_0_splitncnn_3 /Add_87_output_0_splitncnn_4 /Add_87_output_0_splitncnn_5 /Add_87_output_0_splitncnn_6
Convolution      /Conv_331                1 1 /Add_87_output_0_splitncnn_6 /LeakyRelu_264_output_0 0=32 1=3 4=1 5=1 6=18432 9=2 -23310=1,2.000000e-01
Split            splitncnn_265            1 4 /LeakyRelu_264_output_0 /LeakyRelu_264_output_0_splitncnn_0 /LeakyRelu_264_output_0_splitncnn_1 /LeakyRelu_264_output_0_splitncnn_2 /LeakyRelu_264_output_0_splitncnn_3
Concat           /Concat_264              2 1 /Add_87_output_0_splitncnn_5 /LeakyRelu_264_output_0_splitncnn_3 /Concat_264_output_0
Convolution      /Conv_332                1 1 /Concat_264_output_0 /LeakyRelu_265_output_0 0=32 1=3 4=1 5=1 6=27648 9=2 -23310=1,2.000000e-01
Split            splitncnn_266            1 3 /LeakyRelu_265_output_0 /LeakyRelu_265_output_0_splitncnn_0 /LeakyRelu_265_output_0_splitncnn_1 /LeakyRelu_265_output_0_splitncnn_2
Concat           /Concat_265              3 1 /Add_87_output_0_splitncnn_4 /LeakyRelu_264_output_0_splitncnn_2 /LeakyRelu_265_output_0_splitncnn_2 /Concat_265_output_0
Convolution      /Conv_333                1 1 /Concat_265_output_0 /LeakyRelu_266_output_0 0=32 1=3 4=1 5=1 6=36864 9=2 -23310=1,2.000000e-01
Split            splitncnn_267            1 2 /LeakyRelu_266_output_0 /LeakyRelu_266_output_0_splitncnn_0 /LeakyRelu_266_output_0_splitncnn_1
Concat           /Concat_266              4 1 /Add_87_output_0_splitncnn_3 /LeakyRelu_264_output_0_splitncnn_1 /LeakyRelu_265_output_0_splitncnn_1 /LeakyRelu_266_output_0_splitncnn_1 /Concat_266_output_0
Convolution      /Conv_334                1 1 /Concat_266_output_0 /LeakyRelu_267_output_0 0=32 1=3 4=1 5=1 6=46080 9=2 -23310=1,2.000000e-01
Concat           /Concat_267              5 1 /Add_87_output_0_splitncnn_2 /LeakyRelu_264_output_0_splitncnn_0 /LeakyRelu_265_output_0_splitncnn_0 /LeakyRelu_266_output_0_splitncnn_0 /LeakyRelu_267_output_0 /Concat_267_output_0
Convolution      /Conv_335                1 1 /Concat_267_output_0 /Conv_335_output_0 0=64 1=3 4=1 5=1 6=110592
Eltwise          /Add_88                  2 1 /Conv_335_output_0 /Add_87_output_0_splitncnn_1 /Add_88_output_0 0=1 -23301=2,2.000000e-01,1.000000e+00
Split            splitncnn_268            1 6 /Add_88_output_0 /Add_88_output_0_splitncnn_0 /Add_88_output_0_splitncnn_1 /Add_88_output_0_splitncnn_2 /Add_88_output_0_splitncnn_3 /Add_88_output_0_splitncnn_4 /Add_88_output_0_splitncnn_5
Convolution      /Conv_336                1 1 /Add_88_output_0_splitncnn_5 /LeakyRelu_268_output_0 0=32 1=3 4=1 5=1 6=18432 9=2 -23310=1,2.000000e-01
Split            splitncnn_269            1 4 /LeakyRelu_268_output_0 /LeakyRelu_268_output_0_splitncnn_0 /LeakyRelu_268_output_0_splitncnn_1 /LeakyRelu_268_output_0_splitncnn_2 /LeakyRelu_268_output_0_splitncnn_3
Concat           /Concat_268              2 1 /Add_88_output_0_splitncnn_4 /LeakyRelu_268_output_0_splitncnn_3 /Concat_268_output_0
Convolution      /Conv_337                1 1 /Concat_268_output_0 /LeakyRelu_269_output_0 0=32 1=3 4=1 5=1 6=27648 9=2 -23310=1,2.000000e-01
Split            splitncnn_270            1 3 /LeakyRelu_269_output_0 /LeakyRelu_269_output_0_splitncnn_0 /LeakyRelu_269_output_0_splitncnn_1 /LeakyRelu_269_output_0_splitncnn_2
Concat           /Concat_269              3 1 /Add_88_output_0_splitncnn_3 /LeakyRelu_268_output_0_splitncnn_2 /LeakyRelu_269_output_0_splitncnn_2 /Concat_269_output_0
Convolution      /Conv_338                1 1 /Concat_269_output_0 /LeakyRelu_270_output_0 0=32 1=3 4=1 5=1 6=36864 9=2 -23310=1,2.000000e-01
Split            splitncnn_271            1 2 /LeakyRelu_270_output_0 /LeakyRelu_270_output_0_splitncnn_0 /LeakyRelu_270_output_0_splitncnn_1
Concat           /Concat_270              4 1 /Add_88_output_0_splitncnn_2 /LeakyRelu_268_output_0_splitncnn_1 /LeakyRelu_269_output_0_splitncnn_1 /LeakyRelu_270_output_0_splitncnn_1 /Concat_270_output_0
Convolution      /Conv_339                1 1 /Concat_270_output_0 /LeakyRelu_271_output_0 0=32 1=3 4=1 5=1 6=46080 9=2 -23310=1,2.000000e-01
Concat           /Concat_271              5 1 /Add_88_output_0_splitncnn_1 /LeakyRelu_268_output_0_splitncnn_0 /LeakyRelu_269_output_0_splitncnn_0 /LeakyRelu_270_output_0_splitncnn_0 /LeakyRelu_271_output_0 /Concat_271_output_0
Convolution      /Conv_340                1 1 /Concat_271_output_0 /Conv_340_output_0 0=64 1=3 4=1 5=1 6=110592
Eltwise          /Add_89                  2 1 /Conv_340_output_0 /Add_88_output_0_splitncnn_0 /Add_89_output_0 0=1 -23301=2,2.000000e-01,1.000000e+00
Split            splitncnn_272            1 6 /Add_89_output_0 /Add_89_output_0_splitncnn_0 /Add_89_output_0_splitncnn_1 /Add_89_output_0_splitncnn_2 /Add_89_output_0_splitncnn_3 /Add_89_output_0_splitncnn_4 /Add_89_output_0_splitncnn_5
Convolution      /Conv_341                1 1 /Add_89_output_0_splitncnn_5 /LeakyRelu_272_output_0 0=32 1=3 4=1 5=1 6=18432 9=2 -23310=1,2.000000e-01
Split            splitncnn_273            1 4 /LeakyRelu_272_output_0 /LeakyRelu_272_output_0_splitncnn_0 /LeakyRelu_272_output_0_splitncnn_1 /LeakyRelu_272_output_0_splitncnn_2 /LeakyRelu_272_output_0_splitncnn_3
Concat           /Concat_272              2 1 /Add_89_output_0_splitncnn_4 /LeakyRelu_272_output_0_splitncnn_3 /Concat_272_output_0
Convolution      /Conv_342                1 1 /Concat_272_output_0 /LeakyRelu_273_output_0 0=32 1=3 4=1 5=1 6=27648 9=2 -23310=1,2.000000e-01
Split            splitncnn_274            1 3 /LeakyRelu_273_output_0 /LeakyRelu_273_output_0_splitncnn_0 /LeakyRelu_273_output_0_splitncnn_1 /LeakyRelu_273_output_0_splitncnn_2
Concat           /Concat_273              3 1 /Add_89_output_0_splitncnn_3 /LeakyRelu_272_output_0_splitncnn_2 /LeakyRelu_273_output_0_splitncnn_2 /Concat_273_output_0
Convolution      /Conv_343                1 1 /Concat_273_output_0 /LeakyRelu_274_output_0 0=32 1=3 4=1 5=1 6=36864 9=2 -23310=1,2.000000e-01
Split            splitncnn_275            1 2 /LeakyRelu_274_output_0 /LeakyRelu_274_output_0_splitncnn_0 /LeakyRelu_274_output_0_splitncnn_1
Concat           /Concat_274              4 1 /Add_89_output_0_splitncnn_2 /LeakyRelu_272_output_0_splitncnn_1 /LeakyRelu_273_output_0_splitncnn_1 /LeakyRelu_274_output_0_splitncnn_1 /Concat_274_output_0
Convolution      /Conv_344                1 1 /Concat_274_output_0 /LeakyRelu_275_output_0 0=32 1=3 4=1 5=1 6=46080 9=2 -23310=1,2.000000e-01
Concat           /Concat_275              5 1 /Add_89_output_0_splitncnn_1 /LeakyRelu_272_output_0_splitncnn_0 /LeakyRelu_273_output_0_splitncnn_0 /LeakyRelu_274_output_0_splitncnn_0 /LeakyRelu_275_output_0 /Concat_275_output_0
Convolution      /Conv_345                1 1 /Concat_275_output_0 /Conv_345_output_0 0=64 1=3 4=1 5=1 6=110592
Eltwise          /Add_90                  2 1 /Conv_345_output_0 /Add_89_output_0_splitncnn_0 /Add_90_output_0 0=1 -23301=2,2.000000e-01,1.000000e+00
Eltwise          /Add_91                  2 1 /Add_90_output_0 /Add_87_output_0_splitncnn_0 /Add_91_output_0 0=1 -23301=2,2.000000e-01,1.000000e+00
Convolution      /Conv_346                1 1 /Add_91_output_0 /Conv_346_output_0 0=64 1=3 4=1 5=1 6=36864
BinaryOp         /Add_92                  2 1 /Conv_output_0_splitncnn_0 /Conv_346_output_0 /Add_92_output_0
Interp           /Resize                  1 1 /Add_92_output_0 /Resize_output_0 0=1 1=2.000000e+00 2=2.000000e+00
Convolution      /Conv_347                1 1 /Resize_output_0 /LeakyRelu_276_output_0 0=64 1=3 4=1 5=1 6=36864 9=2 -23310=1,2.000000e-01
Interp           /Resize_1                1 1 /LeakyRelu_276_output_0 /Resize_1_output_0 0=1 1=2.000000e+00 2=2.000000e+00
Convolution      /Conv_348                1 1 /Resize_1_output_0 /LeakyRelu_277_output_0 0=64 1=3 4=1 5=1 6=36864 9=2 -23310=1,2.000000e-01
Convolution      /Conv_349                1 1 /LeakyRelu_277_output_0 /LeakyRelu_278_output_0 0=64 1=3 4=1 5=1 6=36864 9=2 -23310=1,2.000000e-01
Convolution      /Conv_350                1 1 /LeakyRelu_278_output_0 output 0=3 1=3 4=1 5=1 6=1728
